{"format": "graph-model", "generatedBy": "1.12.0", "convertedBy": "TensorFlow.js Converter v1.2.10.1", "modelTopology": {"node": [{"name": "dnn/head/AsString", "op": "Const", "attr": {"value": {"tensor": {"dtype": "DT_STRING", "tensorShape": {"dim": [{"size": "10"}]}}}, "dtype": {"type": "DT_STRING"}}}, {"name": "dnn/input_from_feature_columns/input_layer/name_hub_module_embedding/module/Encoder_en/DNN/ResidualHidden_2/weights", "op": "Const", "attr": {"value": {"tensor": {"dtype": "DT_FLOAT", "tensorShape": {"dim": [{"size": "320"}, {"size": "512"}]}}}, "dtype": {"type": "DT_FLOAT"}}}, {"name": "dnn/input_from_feature_columns/input_layer/name_hub_module_embedding/module/Encoder_en/DNN/ResidualHidden_3/weights", "op": "Const", "attr": {"value": {"tensor": {"dtype": "DT_FLOAT", "tensorShape": {"dim": [{"size": "512"}, {"size": "512"}]}}}, "dtype": {"type": "DT_FLOAT"}}}, {"name": "dnn/input_from_feature_columns/input_layer/name_hub_module_embedding/module/Encoder_en/DNN/ResidualHidden_0/weights", "op": "Const", "attr": {"value": {"tensor": {"dtype": "DT_FLOAT", "tensorShape": {"dim": [{"size": "320"}, {"size": "320"}]}}}, "dtype": {"type": "DT_FLOAT"}}}, {"name": "dnn/input_from_feature_columns/input_layer/name_hub_module_embedding/module/Encoder_en/DNN/ResidualHidden_1/weights", "op": "Const", "attr": {"value": {"tensor": {"dtype": "DT_FLOAT", "tensorShape": {"dim": [{"size": "320"}, {"size": "320"}]}}}, "dtype": {"type": "DT_FLOAT"}}}, {"name": "dnn/input_from_feature_columns/input_layer/name_hub_module_embedding/module/Embeddings_en/sharded_0", "op": "Const", "attr": {"value": {"tensor": {"dtype": "DT_FLOAT", "tensorShape": {"dim": [{"size": "47060"}, {"size": "320"}]}}}, "dtype": {"type": "DT_FLOAT"}}}, {"name": "dnn/input_from_feature_columns/input_layer/name_hub_module_embedding/module/Embeddings_en/sharded_1", "op": "Const", "attr": {"value": {"tensor": {"dtype": "DT_FLOAT", "tensorShape": {"dim": [{"size": "47060"}, {"size": "320"}]}}}, "dtype": {"type": "DT_FLOAT"}}}, {"name": "dnn/input_from_feature_columns/input_layer/name_hub_module_embedding/module/Embeddings_en/sharded_2", "op": "Const", "attr": {"value": {"tensor": {"dtype": "DT_FLOAT", "tensorShape": {"dim": [{"size": "47060"}, {"size": "320"}]}}}, "dtype": {"type": "DT_FLOAT"}}}, {"name": "dnn/input_from_feature_columns/input_layer/name_hub_module_embedding/module/Embeddings_en/sharded_3", "op": "Const", "attr": {"value": {"tensor": {"dtype": "DT_FLOAT", "tensorShape": {"dim": [{"size": "47060"}, {"size": "320"}]}}}, "dtype": {"type": "DT_FLOAT"}}}, {"name": "dnn/input_from_feature_columns/input_layer/name_hub_module_embedding/module/Embeddings_en/sharded_4", "op": "Const", "attr": {"value": {"tensor": {"dtype": "DT_FLOAT", "tensorShape": {"dim": [{"size": "47060"}, {"size": "320"}]}}}, "dtype": {"type": "DT_FLOAT"}}}, {"name": "dnn/input_from_feature_columns/input_layer/name_hub_module_embedding/module/Embeddings_en/sharded_5", "op": "Const", "attr": {"value": {"tensor": {"dtype": "DT_FLOAT", "tensorShape": {"dim": [{"size": "47060"}, {"size": "320"}]}}}, "dtype": {"type": "DT_FLOAT"}}}, {"name": "dnn/input_from_feature_columns/input_layer/name_hub_module_embedding/module/Embeddings_en/sharded_6", "op": "Const", "attr": {"value": {"tensor": {"dtype": "DT_FLOAT", "tensorShape": {"dim": [{"size": "47060"}, {"size": "320"}]}}}, "dtype": {"type": "DT_FLOAT"}}}, {"name": "dnn/input_from_feature_columns/input_layer/name_hub_module_embedding/module/Embeddings_en/sharded_7", "op": "Const", "attr": {"value": {"tensor": {"dtype": "DT_FLOAT", "tensorShape": {"dim": [{"size": "47060"}, {"size": "320"}]}}}, "dtype": {"type": "DT_FLOAT"}}}, {"name": "dnn/input_from_feature_columns/input_layer/name_hub_module_embedding/module/Embeddings_en/sharded_8", "op": "Const", "attr": {"value": {"tensor": {"dtype": "DT_FLOAT", "tensorShape": {"dim": [{"size": "47060"}, {"size": "320"}]}}}, "dtype": {"type": "DT_FLOAT"}}}, {"name": "dnn/input_from_feature_columns/input_layer/name_hub_module_embedding/module/Embeddings_en/sharded_9", "op": "Const", "attr": {"value": {"tensor": {"dtype": "DT_FLOAT", "tensorShape": {"dim": [{"size": "47060"}, {"size": "320"}]}}}, "dtype": {"type": "DT_FLOAT"}}}, {"name": "dnn/input_from_feature_columns/input_layer/name_hub_module_embedding/module/Embeddings_en/sharded_10", "op": "Const", "attr": {"value": {"tensor": {"dtype": "DT_FLOAT", "tensorShape": {"dim": [{"size": "47060"}, {"size": "320"}]}}}, "dtype": {"type": "DT_FLOAT"}}}, {"name": "dnn/input_from_feature_columns/input_layer/name_hub_module_embedding/module/Embeddings_en/sharded_11", "op": "Const", "attr": {"value": {"tensor": {"dtype": "DT_FLOAT", "tensorShape": {"dim": [{"size": "47060"}, {"size": "320"}]}}}, "dtype": {"type": "DT_FLOAT"}}}, {"name": "dnn/input_from_feature_columns/input_layer/name_hub_module_embedding/module/Embeddings_en/sharded_12", "op": "Const", "attr": {"value": {"tensor": {"dtype": "DT_FLOAT", "tensorShape": {"dim": [{"size": "47060"}, {"size": "320"}]}}}, "dtype": {"type": "DT_FLOAT"}}}, {"name": "dnn/input_from_feature_columns/input_layer/name_hub_module_embedding/module/Embeddings_en/sharded_13", "op": "Const", "attr": {"dtype": {"type": "DT_FLOAT"}, "value": {"tensor": {"dtype": "DT_FLOAT", "tensorShape": {"dim": [{"size": "47060"}, {"size": "320"}]}}}}}, {"name": "dnn/input_from_feature_columns/input_layer/name_hub_module_embedding/module/Embeddings_en/sharded_14", "op": "Const", "attr": {"dtype": {"type": "DT_FLOAT"}, "value": {"tensor": {"dtype": "DT_FLOAT", "tensorShape": {"dim": [{"size": "47060"}, {"size": "320"}]}}}}}, {"name": "dnn/input_from_feature_columns/input_layer/name_hub_module_embedding/module/Embeddings_en/sharded_15", "op": "Const", "attr": {"dtype": {"type": "DT_FLOAT"}, "value": {"tensor": {"dtype": "DT_FLOAT", "tensorShape": {"dim": [{"size": "47060"}, {"size": "320"}]}}}}}, {"name": "dnn/input_from_feature_columns/input_layer/name_hub_module_embedding/module/Embeddings_en/sharded_16", "op": "Const", "attr": {"value": {"tensor": {"dtype": "DT_FLOAT", "tensorShape": {"dim": [{"size": "47060"}, {"size": "320"}]}}}, "dtype": {"type": "DT_FLOAT"}}}, {"name": "dnn/input_from_feature_columns/input_layer/name_hub_module_embedding/module_apply_default/Encoder_en/DNN/embedding_lookup_sparse/embedding_lookup/floordiv/y", "op": "Const", "attr": {"value": {"tensor": {"dtype": "DT_INT64", "tensorShape": {}}}, "dtype": {"type": "DT_INT64"}}}, {"name": "dnn/input_from_feature_columns/input_layer/name_hub_module_embedding/module_apply_default/string_to_index/hash_table/Const", "op": "Const", "attr": {"value": {"tensor": {"dtype": "DT_INT64", "tensorShape": {}}}, "dtype": {"type": "DT_INT64"}}}, {"name": "dnn/input_from_feature_columns/input_layer/name_hub_module_embedding/module_apply_default/compound_bigrams/boolean_mask/strided_slice/stack_1", "op": "Const", "attr": {"value": {"tensor": {"dtype": "DT_INT32", "tensorShape": {"dim": [{"size": "1"}]}}}, "dtype": {"type": "DT_INT32"}}}, {"name": "dnn/input_from_feature_columns/input_layer/name_hub_module_embedding/module/string_to_index/hash_table", "op": "HashTableV2", "attr": {"shared_name": {"s": ""}, "use_node_name_sharing": {"b": false}, "key_dtype": {"type": "DT_STRING"}, "value_dtype": {"type": "DT_INT64"}, "container": {"s": ""}}}, {"name": "dnn/input_from_feature_columns/input_layer/name_hub_module_embedding/module_apply_default/compound_bigrams/strided_slice_2/stack", "op": "Const", "attr": {"value": {"tensor": {"dtype": "DT_INT32", "tensorShape": {"dim": [{"size": "3"}]}}}, "dtype": {"type": "DT_INT32"}}}, {"name": "dnn/input_from_feature_columns/input_layer/name_hub_module_embedding/module_apply_default/Const", "op": "Const", "attr": {"value": {"tensor": {"dtype": "DT_INT64", "tensorShape": {}}}, "dtype": {"type": "DT_INT64"}}}, {"name": "dnn/head/ExpandDims/dim", "op": "Const", "attr": {"value": {"tensor": {"dtype": "DT_INT32", "tensorShape": {}}}, "dtype": {"type": "DT_INT32"}}}, {"name": "dnn/input_from_feature_columns/input_layer/name_hub_module_embedding/module_apply_default/ones_like", "op": "Const", "attr": {"value": {"tensor": {"dtype": "DT_INT64", "tensorShape": {"dim": [{"size": "2"}]}}}, "dtype": {"type": "DT_INT64"}}}, {"name": "dnn/input_from_feature_columns/input_layer/name_hub_module_embedding/module_apply_default/StringJoin/inputs_0", "op": "Const", "attr": {"value": {"tensor": {"dtype": "DT_STRING", "tensorShape": {}}}, "dtype": {"type": "DT_STRING"}}}, {"name": "ParseExample/ParseExample/dense_keys_0", "op": "Const", "attr": {"value": {"tensor": {"dtype": "DT_STRING", "tensorShape": {}}}, "dtype": {"type": "DT_STRING"}}}, {"name": "ParseExample/ParseExample/names", "op": "Const", "attr": {"dtype": {"type": "DT_STRING"}, "value": {"tensor": {"dtype": "DT_STRING", "tensorShape": {"dim": [{}]}}}}}, {"name": "dnn/input_from_feature_columns/input_layer/name_hub_module_embedding/module_apply_default/Encoder_en/DNN/embedding_lookup_sparse/embedding_lookup/Reshape/shape", "op": "Const", "attr": {"value": {"tensor": {"dtype": "DT_INT32", "tensorShape": {"dim": [{"size": "1"}]}}}, "dtype": {"type": "DT_INT32"}}}, {"name": "dnn/input_from_feature_columns/input_layer/name_hub_module_embedding/module_apply_default/normalize/RegexReplace/pattern", "op": "Const", "attr": {"value": {"tensor": {"dtype": "DT_STRING", "tensorShape": {}}}, "dtype": {"type": "DT_STRING"}}}, {"name": "dnn/input_from_feature_columns/input_layer/name_hub_module_embedding/module_apply_default/normalize/RegexReplace/rewrite", "op": "Const", "attr": {"value": {"tensor": {"dtype": "DT_STRING", "tensorShape": {}}}, "dtype": {"type": "DT_STRING"}}}, {"name": "dnn/input_from_feature_columns/input_layer/name_hub_module_embedding/module_apply_default/normalize/RegexReplace_1/pattern", "op": "Const", "attr": {"value": {"tensor": {"dtype": "DT_STRING", "tensorShape": {}}}, "dtype": {"type": "DT_STRING"}}}, {"name": "dnn/input_from_feature_columns/input_layer/name_hub_module_embedding/module_apply_default/normalize/RegexReplace_1/rewrite", "op": "Const", "attr": {"value": {"tensor": {"dtype": "DT_STRING", "tensorShape": {}}}, "dtype": {"type": "DT_STRING"}}}, {"name": "dnn/input_from_feature_columns/input_layer/name_hub_module_embedding/module_apply_default/normalize/RegexReplace_2/pattern", "op": "Const", "attr": {"value": {"tensor": {"dtype": "DT_STRING", "tensorShape": {}}}, "dtype": {"type": "DT_STRING"}}}, {"name": "dnn/input_from_feature_columns/input_layer/name_hub_module_embedding/module_apply_default/normalize/RegexReplace_2/rewrite", "op": "Const", "attr": {"value": {"tensor": {"dtype": "DT_STRING", "tensorShape": {}}}, "dtype": {"type": "DT_STRING"}}}, {"name": "dnn/input_from_feature_columns/input_layer/name_hub_module_embedding/module_apply_default/normalize/RegexReplace_3/pattern", "op": "Const", "attr": {"dtype": {"type": "DT_STRING"}, "value": {"tensor": {"dtype": "DT_STRING", "tensorShape": {}}}}}, {"name": "dnn/input_from_feature_columns/input_layer/name_hub_module_embedding/module_apply_default/normalize/RegexReplace_3/rewrite", "op": "Const", "attr": {"dtype": {"type": "DT_STRING"}, "value": {"tensor": {"dtype": "DT_STRING", "tensorShape": {}}}}}, {"name": "dnn/input_from_feature_columns/input_layer/name_hub_module_embedding/module_apply_default/normalize/RegexReplace_4/pattern", "op": "Const", "attr": {"value": {"tensor": {"dtype": "DT_STRING", "tensorShape": {}}}, "dtype": {"type": "DT_STRING"}}}, {"name": "dnn/input_from_feature_columns/input_layer/name_hub_module_embedding/module_apply_default/normalize/RegexReplace_4/rewrite", "op": "Const", "attr": {"value": {"tensor": {"dtype": "DT_STRING", "tensorShape": {}}}, "dtype": {"type": "DT_STRING"}}}, {"name": "dnn/input_from_feature_columns/input_layer/name_hub_module_embedding/module_apply_default/normalize/RegexReplace_5/pattern", "op": "Const", "attr": {"value": {"tensor": {"dtype": "DT_STRING", "tensorShape": {}}}, "dtype": {"type": "DT_STRING"}}}, {"name": "dnn/input_from_feature_columns/input_layer/name_hub_module_embedding/module_apply_default/normalize/RegexReplace_5/rewrite", "op": "Const", "attr": {"value": {"tensor": {"dtype": "DT_STRING", "tensorShape": {}}}, "dtype": {"type": "DT_STRING"}}}, {"name": "dnn/input_from_feature_columns/input_layer/name_hub_module_embedding/module_apply_default/normalize/RegexReplace_6/pattern", "op": "Const", "attr": {"value": {"tensor": {"dtype": "DT_STRING", "tensorShape": {}}}, "dtype": {"type": "DT_STRING"}}}, {"name": "dnn/input_from_feature_columns/input_layer/name_hub_module_embedding/module_apply_default/normalize/RegexReplace_6/rewrite", "op": "Const", "attr": {"dtype": {"type": "DT_STRING"}, "value": {"tensor": {"dtype": "DT_STRING", "tensorShape": {}}}}}, {"name": "dnn/input_from_feature_columns/input_layer/name_hub_module_embedding/module_apply_default/normalize/RegexReplace_7/pattern", "op": "Const", "attr": {"dtype": {"type": "DT_STRING"}, "value": {"tensor": {"dtype": "DT_STRING", "tensorShape": {}}}}}, {"name": "dnn/input_from_feature_columns/input_layer/name_hub_module_embedding/module_apply_default/normalize/RegexReplace_7/rewrite", "op": "Const", "attr": {"value": {"tensor": {"dtype": "DT_STRING", "tensorShape": {}}}, "dtype": {"type": "DT_STRING"}}}, {"name": "dnn/input_from_feature_columns/input_layer/name_hub_module_embedding/module_apply_default/normalize/RegexReplace_8/pattern", "op": "Const", "attr": {"value": {"tensor": {"dtype": "DT_STRING", "tensorShape": {}}}, "dtype": {"type": "DT_STRING"}}}, {"name": "dnn/input_from_feature_columns/input_layer/name_hub_module_embedding/module_apply_default/normalize/RegexReplace_8/rewrite", "op": "Const", "attr": {"value": {"tensor": {"dtype": "DT_STRING", "tensorShape": {}}}, "dtype": {"type": "DT_STRING"}}}, {"name": "dnn/input_from_feature_columns/input_layer/name_hub_module_embedding/module_apply_default/normalize/RegexReplace_9/pattern", "op": "Const", "attr": {"value": {"tensor": {"dtype": "DT_STRING", "tensorShape": {}}}, "dtype": {"type": "DT_STRING"}}}, {"name": "dnn/input_from_feature_columns/input_layer/name_hub_module_embedding/module_apply_default/normalize/RegexReplace_9/rewrite", "op": "Const", "attr": {"value": {"tensor": {"dtype": "DT_STRING", "tensorShape": {}}}, "dtype": {"type": "DT_STRING"}}}, {"name": "dnn/input_from_feature_columns/input_layer/name_hub_module_embedding/module_apply_default/normalize/RegexReplace_10/pattern", "op": "Const", "attr": {"value": {"tensor": {"dtype": "DT_STRING", "tensorShape": {}}}, "dtype": {"type": "DT_STRING"}}}, {"name": "dnn/input_from_feature_columns/input_layer/name_hub_module_embedding/module_apply_default/normalize/RegexReplace_10/rewrite", "op": "Const", "attr": {"value": {"tensor": {"dtype": "DT_STRING", "tensorShape": {}}}, "dtype": {"type": "DT_STRING"}}}, {"name": "dnn/input_from_feature_columns/input_layer/name_hub_module_embedding/module_apply_default/normalize/RegexReplace_11/pattern", "op": "Const", "attr": {"value": {"tensor": {"dtype": "DT_STRING", "tensorShape": {}}}, "dtype": {"type": "DT_STRING"}}}, {"name": "dnn/input_from_feature_columns/input_layer/name_hub_module_embedding/module_apply_default/normalize/RegexReplace_11/rewrite", "op": "Const", "attr": {"value": {"tensor": {"dtype": "DT_STRING", "tensorShape": {}}}, "dtype": {"type": "DT_STRING"}}}, {"name": "dnn/input_from_feature_columns/input_layer/name_hub_module_embedding/module_apply_default/normalize/RegexReplace_12/pattern", "op": "Const", "attr": {"value": {"tensor": {"dtype": "DT_STRING", "tensorShape": {}}}, "dtype": {"type": "DT_STRING"}}}, {"name": "dnn/input_from_feature_columns/input_layer/name_hub_module_embedding/module_apply_default/normalize/RegexReplace_12/rewrite", "op": "Const", "attr": {"value": {"tensor": {"dtype": "DT_STRING", "tensorShape": {}}}, "dtype": {"type": "DT_STRING"}}}, {"name": "dnn/input_from_feature_columns/input_layer/name_hub_module_embedding/module_apply_default/normalize/RegexReplace_13/pattern", "op": "Const", "attr": {"value": {"tensor": {"dtype": "DT_STRING", "tensorShape": {}}}, "dtype": {"type": "DT_STRING"}}}, {"name": "dnn/input_from_feature_columns/input_layer/name_hub_module_embedding/module_apply_default/normalize/RegexReplace_13/rewrite", "op": "Const", "attr": {"value": {"tensor": {"dtype": "DT_STRING", "tensorShape": {}}}, "dtype": {"type": "DT_STRING"}}}, {"name": "dnn/input_from_feature_columns/input_layer/name_hub_module_embedding/module_apply_default/normalize/RegexReplace_14/pattern", "op": "Const", "attr": {"dtype": {"type": "DT_STRING"}, "value": {"tensor": {"dtype": "DT_STRING", "tensorShape": {}}}}}, {"name": "dnn/input_from_feature_columns/input_layer/name_hub_module_embedding/module_apply_default/normalize/RegexReplace_14/rewrite", "op": "Const", "attr": {"value": {"tensor": {"dtype": "DT_STRING", "tensorShape": {}}}, "dtype": {"type": "DT_STRING"}}}, {"name": "dnn/input_from_feature_columns/input_layer/name_hub_module_embedding/module_apply_default/normalize/RegexReplace_15/pattern", "op": "Const", "attr": {"dtype": {"type": "DT_STRING"}, "value": {"tensor": {"dtype": "DT_STRING", "tensorShape": {}}}}}, {"name": "dnn/input_from_feature_columns/input_layer/name_hub_module_embedding/module_apply_default/normalize/RegexReplace_15/rewrite", "op": "Const", "attr": {"value": {"tensor": {"dtype": "DT_STRING", "tensorShape": {}}}, "dtype": {"type": "DT_STRING"}}}, {"name": "dnn/input_from_feature_columns/input_layer/name_hub_module_embedding/module_apply_default/normalize/RegexReplace_16/pattern", "op": "Const", "attr": {"value": {"tensor": {"dtype": "DT_STRING", "tensorShape": {}}}, "dtype": {"type": "DT_STRING"}}}, {"name": "dnn/input_from_feature_columns/input_layer/name_hub_module_embedding/module_apply_default/normalize/RegexReplace_16/rewrite", "op": "Const", "attr": {"value": {"tensor": {"dtype": "DT_STRING", "tensorShape": {}}}, "dtype": {"type": "DT_STRING"}}}, {"name": "dnn/input_from_feature_columns/input_layer/name_hub_module_embedding/module_apply_default/normalize/RegexReplace_17/pattern", "op": "Const", "attr": {"value": {"tensor": {"dtype": "DT_STRING", "tensorShape": {}}}, "dtype": {"type": "DT_STRING"}}}, {"name": "dnn/input_from_feature_columns/input_layer/name_hub_module_embedding/module_apply_default/normalize/RegexReplace_17/rewrite", "op": "Const", "attr": {"value": {"tensor": {"dtype": "DT_STRING", "tensorShape": {}}}, "dtype": {"type": "DT_STRING"}}}, {"name": "dnn/input_from_feature_columns/input_layer/name_hub_module_embedding/module_apply_default/normalize/RegexReplace_18/pattern", "op": "Const", "attr": {"value": {"tensor": {"dtype": "DT_STRING", "tensorShape": {}}}, "dtype": {"type": "DT_STRING"}}}, {"name": "dnn/input_from_feature_columns/input_layer/name_hub_module_embedding/module_apply_default/normalize/RegexReplace_18/rewrite", "op": "Const", "attr": {"value": {"tensor": {"dtype": "DT_STRING", "tensorShape": {}}}, "dtype": {"type": "DT_STRING"}}}, {"name": "dnn/input_from_feature_columns/input_layer/name_hub_module_embedding/module_apply_default/normalize/RegexReplace_19/pattern", "op": "Const", "attr": {"value": {"tensor": {"dtype": "DT_STRING", "tensorShape": {}}}, "dtype": {"type": "DT_STRING"}}}, {"name": "dnn/input_from_feature_columns/input_layer/name_hub_module_embedding/module_apply_default/normalize/RegexReplace_19/rewrite", "op": "Const", "attr": {"dtype": {"type": "DT_STRING"}, "value": {"tensor": {"dtype": "DT_STRING", "tensorShape": {}}}}}, {"name": "dnn/input_from_feature_columns/input_layer/name_hub_module_embedding/module_apply_default/normalize/RegexReplace_20/pattern", "op": "Const", "attr": {"value": {"tensor": {"dtype": "DT_STRING", "tensorShape": {}}}, "dtype": {"type": "DT_STRING"}}}, {"name": "dnn/input_from_feature_columns/input_layer/name_hub_module_embedding/module_apply_default/normalize/RegexReplace_20/rewrite", "op": "Const", "attr": {"value": {"tensor": {"dtype": "DT_STRING", "tensorShape": {}}}, "dtype": {"type": "DT_STRING"}}}, {"name": "dnn/input_from_feature_columns/input_layer/name_hub_module_embedding/module_apply_default/normalize/RegexReplace_21/pattern", "op": "Const", "attr": {"value": {"tensor": {"dtype": "DT_STRING", "tensorShape": {}}}, "dtype": {"type": "DT_STRING"}}}, {"name": "dnn/input_from_feature_columns/input_layer/name_hub_module_embedding/module_apply_default/normalize/RegexReplace_21/rewrite", "op": "Const", "attr": {"dtype": {"type": "DT_STRING"}, "value": {"tensor": {"dtype": "DT_STRING", "tensorShape": {}}}}}, {"name": "dnn/input_from_feature_columns/input_layer/name_hub_module_embedding/module_apply_default/normalize/RegexReplace_22/pattern", "op": "Const", "attr": {"value": {"tensor": {"dtype": "DT_STRING", "tensorShape": {}}}, "dtype": {"type": "DT_STRING"}}}, {"name": "dnn/input_from_feature_columns/input_layer/name_hub_module_embedding/module_apply_default/normalize/RegexReplace_22/rewrite", "op": "Const", "attr": {"value": {"tensor": {"dtype": "DT_STRING", "tensorShape": {}}}, "dtype": {"type": "DT_STRING"}}}, {"name": "dnn/input_from_feature_columns/input_layer/name_hub_module_embedding/module_apply_default/normalize/RegexReplace_23/pattern", "op": "Const", "attr": {"dtype": {"type": "DT_STRING"}, "value": {"tensor": {"dtype": "DT_STRING", "tensorShape": {}}}}}, {"name": "dnn/input_from_feature_columns/input_layer/name_hub_module_embedding/module_apply_default/normalize/RegexReplace_23/rewrite", "op": "Const", "attr": {"value": {"tensor": {"dtype": "DT_STRING", "tensorShape": {}}}, "dtype": {"type": "DT_STRING"}}}, {"name": "dnn/input_from_feature_columns/input_layer/name_hub_module_embedding/module_apply_default/normalize/RegexReplace_24/pattern", "op": "Const", "attr": {"value": {"tensor": {"dtype": "DT_STRING", "tensorShape": {}}}, "dtype": {"type": "DT_STRING"}}}, {"name": "dnn/input_from_feature_columns/input_layer/name_hub_module_embedding/module_apply_default/normalize/RegexReplace_24/rewrite", "op": "Const", "attr": {"value": {"tensor": {"dtype": "DT_STRING", "tensorShape": {}}}, "dtype": {"type": "DT_STRING"}}}, {"name": "dnn/input_from_feature_columns/input_layer/name_hub_module_embedding/module_apply_default/normalize/RegexReplace_25/pattern", "op": "Const", "attr": {"value": {"tensor": {"dtype": "DT_STRING", "tensorShape": {}}}, "dtype": {"type": "DT_STRING"}}}, {"name": "dnn/input_from_feature_columns/input_layer/name_hub_module_embedding/module_apply_default/normalize/RegexReplace_25/rewrite", "op": "Const", "attr": {"value": {"tensor": {"dtype": "DT_STRING", "tensorShape": {}}}, "dtype": {"type": "DT_STRING"}}}, {"name": "dnn/input_from_feature_columns/input_layer/name_hub_module_embedding/module_apply_default/normalize/RegexReplace_26/pattern", "op": "Const", "attr": {"value": {"tensor": {"dtype": "DT_STRING", "tensorShape": {}}}, "dtype": {"type": "DT_STRING"}}}, {"name": "dnn/input_from_feature_columns/input_layer/name_hub_module_embedding/module_apply_default/StringJoin/inputs_2", "op": "Const", "attr": {"value": {"tensor": {"dtype": "DT_STRING", "tensorShape": {}}}, "dtype": {"type": "DT_STRING"}}}, {"name": "dnn/input_from_feature_columns/input_layer/name_hub_module_embedding/module_apply_default/RegexReplace/pattern", "op": "Const", "attr": {"value": {"tensor": {"dtype": "DT_STRING", "tensorShape": {}}}, "dtype": {"type": "DT_STRING"}}}, {"name": "dnn/input_from_feature_columns/input_layer/name_hub_module_embedding/module_apply_default/RegexReplace_1/rewrite", "op": "Const", "attr": {"value": {"tensor": {"dtype": "DT_STRING", "tensorShape": {}}}, "dtype": {"type": "DT_STRING"}}}, {"name": "dnn/input_from_feature_columns/input_layer/name_hub_module_embedding/module_apply_default/tokenize/Const", "op": "Const", "attr": {"value": {"tensor": {"dtype": "DT_STRING", "tensorShape": {}}}, "dtype": {"type": "DT_STRING"}}}, {"name": "dnn/head/strided_slice/stack", "op": "Const", "attr": {"value": {"tensor": {"dtype": "DT_INT32", "tensorShape": {"dim": [{"size": "1"}]}}}, "dtype": {"type": "DT_INT32"}}}, {"name": "dnn/head/strided_slice/stack_1", "op": "Const", "attr": {"value": {"tensor": {"dtype": "DT_INT32", "tensorShape": {"dim": [{"size": "1"}]}}}, "dtype": {"type": "DT_INT32"}}}, {"name": "dnn/input_from_feature_columns/input_layer/name_hub_module_embedding/module_apply_default/compound_bigrams/ExpandDims/dim", "op": "Const", "attr": {"dtype": {"type": "DT_INT32"}, "value": {"tensor": {"dtype": "DT_INT32", "tensorShape": {}}}}}, {"name": "dnn/input_from_feature_columns/input_layer/name_hub_module_embedding/module_apply_default/compound_bigrams/concat_1/axis", "op": "Const", "attr": {"dtype": {"type": "DT_INT32"}, "value": {"tensor": {"dtype": "DT_INT32", "tensorShape": {}}}}}, {"name": "dnn/input_from_feature_columns/input_layer/name_hub_module_embedding/module_apply_default/compound_bigrams/RegexReplace/pattern", "op": "Const", "attr": {"value": {"tensor": {"dtype": "DT_STRING", "tensorShape": {}}}, "dtype": {"type": "DT_STRING"}}}, {"name": "dnn/input_from_feature_columns/input_layer/name_hub_module_embedding/module_apply_default/compound_bigrams/RegexReplace_1/pattern", "op": "Const", "attr": {"value": {"tensor": {"dtype": "DT_STRING", "tensorShape": {}}}, "dtype": {"type": "DT_STRING"}}}, {"name": "dnn/input_from_feature_columns/input_layer/name_hub_module_embedding/module_apply_default/compound_bigrams/RegexReplace_2/pattern", "op": "Const", "attr": {"value": {"tensor": {"dtype": "DT_STRING", "tensorShape": {}}}, "dtype": {"type": "DT_STRING"}}}, {"name": "dnn/input_from_feature_columns/input_layer/name_hub_module_embedding/module_apply_default/Equal/y", "op": "Const", "attr": {"value": {"tensor": {"dtype": "DT_STRING", "tensorShape": {}}}, "dtype": {"type": "DT_STRING"}}}, {"name": "dnn/input_from_feature_columns/input_layer/name_hub_module_embedding/module_apply_default/compound_bigrams/strided_slice_2/stack_1", "op": "Const", "attr": {"value": {"tensor": {"dtype": "DT_INT32", "tensorShape": {"dim": [{"size": "3"}]}}}, "dtype": {"type": "DT_INT32"}}}, {"name": "dnn/input_from_feature_columns/input_layer/name_hub_module_embedding/module_apply_default/compound_bigrams/strided_slice_3/stack_1", "op": "Const", "attr": {"value": {"tensor": {"dtype": "DT_INT32", "tensorShape": {"dim": [{"size": "3"}]}}}, "dtype": {"type": "DT_INT32"}}}, {"name": "dnn/input_from_feature_columns/input_layer/name_hub_module_embedding/module_apply_default/compound_bigrams/strided_slice_2/stack_2", "op": "Const", "attr": {"value": {"tensor": {"dtype": "DT_INT32", "tensorShape": {"dim": [{"size": "3"}]}}}, "dtype": {"type": "DT_INT32"}}}, {"name": "dnn/input_from_feature_columns/input_layer/name_hub_module_embedding/module_apply_default/compound_bigrams/strided_slice_1/stack_1", "op": "Const", "attr": {"value": {"tensor": {"dtype": "DT_INT32", "tensorShape": {"dim": [{"size": "2"}]}}}, "dtype": {"type": "DT_INT32"}}}, {"name": "dnn/input_from_feature_columns/input_layer/name_hub_module_embedding/module_apply_default/compound_bigrams/strided_slice_1/stack", "op": "Const", "attr": {"value": {"tensor": {"dtype": "DT_INT32", "tensorShape": {"dim": [{"size": "2"}]}}}, "dtype": {"type": "DT_INT32"}}}, {"name": "dnn/input_from_feature_columns/input_layer/name_hub_module_embedding/module_apply_default/compound_bigrams/strided_slice_1/stack_2", "op": "Const", "attr": {"value": {"tensor": {"dtype": "DT_INT32", "tensorShape": {"dim": [{"size": "2"}]}}}, "dtype": {"type": "DT_INT32"}}}, {"name": "dnn/input_from_feature_columns/input_layer/name_hub_module_embedding/module/Encoder_en/DNN/ResidualHidden_3/projection", "op": "Const", "attr": {"value": {"tensor": {"dtype": "DT_FLOAT", "tensorShape": {"dim": [{"size": "320"}, {"size": "512"}]}}}, "dtype": {"type": "DT_FLOAT"}}}, {"name": "dnn/head/Tile/multiples/1", "op": "Const", "attr": {"value": {"tensor": {"dtype": "DT_INT32", "tensorShape": {}}}, "dtype": {"type": "DT_INT32"}}}, {"name": "dnn/input_from_feature_columns/input_layer/name_hub_module_embedding/module_apply_default/Encoder_en/hidden_layers/l2_normalize/Maximum/y", "op": "Const", "attr": {"dtype": {"type": "DT_FLOAT"}, "value": {"tensor": {"dtype": "DT_FLOAT", "tensorShape": {}}}}}, {"name": "dnn/hiddenlayer_0/kernel/part_0", "op": "Const", "attr": {"value": {"tensor": {"dtype": "DT_FLOAT", "tensorShape": {"dim": [{"size": "512"}, {"size": "64"}]}}}, "dtype": {"type": "DT_FLOAT"}}}, {"name": "dnn/hiddenlayer_0/bias/part_0", "op": "Const", "attr": {"value": {"tensor": {"dtype": "DT_FLOAT", "tensorShape": {"dim": [{"size": "64"}]}}}, "dtype": {"type": "DT_FLOAT"}}}, {"name": "dnn/hiddenlayer_1/kernel/part_0", "op": "Const", "attr": {"value": {"tensor": {"dtype": "DT_FLOAT", "tensorShape": {"dim": [{"size": "64"}, {"size": "10"}]}}}, "dtype": {"type": "DT_FLOAT"}}}, {"name": "dnn/hiddenlayer_1/bias/part_0", "op": "Const", "attr": {"value": {"tensor": {"dtype": "DT_FLOAT", "tensorShape": {"dim": [{"size": "10"}]}}}, "dtype": {"type": "DT_FLOAT"}}}, {"name": "dnn/logits/kernel/part_0", "op": "Const", "attr": {"dtype": {"type": "DT_FLOAT"}, "value": {"tensor": {"dtype": "DT_FLOAT", "tensorShape": {"dim": [{"size": "10"}, {"size": "10"}]}}}}}, {"name": "dnn/logits/bias/part_0", "op": "Const", "attr": {"value": {"tensor": {"dtype": "DT_FLOAT", "tensorShape": {"dim": [{"size": "10"}]}}}, "dtype": {"type": "DT_FLOAT"}}}, {"name": "input_tensors", "op": "Placeholder", "attr": {"shape": {"shape": {"dim": [{"size": "-1"}]}}, "dtype": {"type": "DT_STRING"}}}, {"name": "dnn/input_from_feature_columns/input_layer/name_hub_module_embedding/module_apply_default/string_to_index_Lookup/hash_table_Size", "op": "LookupTableSizeV2", "input": ["dnn/input_from_feature_columns/input_layer/name_hub_module_embedding/module/string_to_index/hash_table"]}, {"name": "dnn/head/ExpandDims", "op": "ExpandDims", "input": ["dnn/head/AsString", "dnn/head/ExpandDims/dim"], "attr": {"T": {"type": "DT_STRING"}, "Tdim": {"type": "DT_INT32"}}}, {"name": "ParseExample/ParseExample", "op": "ParseExample", "input": ["input_tensors", "ParseExample/ParseExample/names", "ParseExample/ParseExample/dense_keys_0", "ParseExample/ParseExample/names"], "attr": {"sparse_types": {"list": {}}, "dense_shapes": {"list": {"shape": [{"dim": [{"size": "1"}]}]}}, "Tdense": {"list": {"type": ["DT_STRING"]}}, "Ndense": {"i": "1"}, "Nsparse": {"i": "0"}}}, {"name": "dnn/input_from_feature_columns/input_layer/name_hub_module_embedding/Reshape", "op": "Reshape", "input": ["ParseExample/ParseExample", "dnn/input_from_feature_columns/input_layer/name_hub_module_embedding/module_apply_default/Encoder_en/DNN/embedding_lookup_sparse/embedding_lookup/Reshape/shape"], "attr": {"T": {"type": "DT_STRING"}, "Tshape": {"type": "DT_INT32"}}}, {"name": "dnn/input_from_feature_columns/input_layer/name_hub_module_embedding/module_apply_default/normalize/RegexReplace", "op": "RegexReplace", "input": ["dnn/input_from_feature_columns/input_layer/name_hub_module_embedding/Reshape", "dnn/input_from_feature_columns/input_layer/name_hub_module_embedding/module_apply_default/normalize/RegexReplace/pattern", "dnn/input_from_feature_columns/input_layer/name_hub_module_embedding/module_apply_default/normalize/RegexReplace/rewrite"], "attr": {"replace_global": {"b": true}}}, {"name": "dnn/input_from_feature_columns/input_layer/name_hub_module_embedding/module_apply_default/normalize/RegexReplace_1", "op": "RegexReplace", "input": ["dnn/input_from_feature_columns/input_layer/name_hub_module_embedding/module_apply_default/normalize/RegexReplace", "dnn/input_from_feature_columns/input_layer/name_hub_module_embedding/module_apply_default/normalize/RegexReplace_1/pattern", "dnn/input_from_feature_columns/input_layer/name_hub_module_embedding/module_apply_default/normalize/RegexReplace_1/rewrite"], "attr": {"replace_global": {"b": true}}}, {"name": "dnn/input_from_feature_columns/input_layer/name_hub_module_embedding/module_apply_default/normalize/RegexReplace_2", "op": "RegexReplace", "input": ["dnn/input_from_feature_columns/input_layer/name_hub_module_embedding/module_apply_default/normalize/RegexReplace_1", "dnn/input_from_feature_columns/input_layer/name_hub_module_embedding/module_apply_default/normalize/RegexReplace_2/pattern", "dnn/input_from_feature_columns/input_layer/name_hub_module_embedding/module_apply_default/normalize/RegexReplace_2/rewrite"], "attr": {"replace_global": {"b": true}}}, {"name": "dnn/input_from_feature_columns/input_layer/name_hub_module_embedding/module_apply_default/normalize/RegexReplace_3", "op": "RegexReplace", "input": ["dnn/input_from_feature_columns/input_layer/name_hub_module_embedding/module_apply_default/normalize/RegexReplace_2", "dnn/input_from_feature_columns/input_layer/name_hub_module_embedding/module_apply_default/normalize/RegexReplace_3/pattern", "dnn/input_from_feature_columns/input_layer/name_hub_module_embedding/module_apply_default/normalize/RegexReplace_3/rewrite"], "attr": {"replace_global": {"b": true}}}, {"name": "dnn/input_from_feature_columns/input_layer/name_hub_module_embedding/module_apply_default/normalize/RegexReplace_4", "op": "RegexReplace", "input": ["dnn/input_from_feature_columns/input_layer/name_hub_module_embedding/module_apply_default/normalize/RegexReplace_3", "dnn/input_from_feature_columns/input_layer/name_hub_module_embedding/module_apply_default/normalize/RegexReplace_4/pattern", "dnn/input_from_feature_columns/input_layer/name_hub_module_embedding/module_apply_default/normalize/RegexReplace_4/rewrite"], "attr": {"replace_global": {"b": true}}}, {"name": "dnn/input_from_feature_columns/input_layer/name_hub_module_embedding/module_apply_default/normalize/RegexReplace_5", "op": "RegexReplace", "input": ["dnn/input_from_feature_columns/input_layer/name_hub_module_embedding/module_apply_default/normalize/RegexReplace_4", "dnn/input_from_feature_columns/input_layer/name_hub_module_embedding/module_apply_default/normalize/RegexReplace_5/pattern", "dnn/input_from_feature_columns/input_layer/name_hub_module_embedding/module_apply_default/normalize/RegexReplace_5/rewrite"], "attr": {"replace_global": {"b": true}}}, {"name": "dnn/input_from_feature_columns/input_layer/name_hub_module_embedding/module_apply_default/normalize/RegexReplace_6", "op": "RegexReplace", "input": ["dnn/input_from_feature_columns/input_layer/name_hub_module_embedding/module_apply_default/normalize/RegexReplace_5", "dnn/input_from_feature_columns/input_layer/name_hub_module_embedding/module_apply_default/normalize/RegexReplace_6/pattern", "dnn/input_from_feature_columns/input_layer/name_hub_module_embedding/module_apply_default/normalize/RegexReplace_6/rewrite"], "attr": {"replace_global": {"b": true}}}, {"name": "dnn/input_from_feature_columns/input_layer/name_hub_module_embedding/module_apply_default/normalize/RegexReplace_7", "op": "RegexReplace", "input": ["dnn/input_from_feature_columns/input_layer/name_hub_module_embedding/module_apply_default/normalize/RegexReplace_6", "dnn/input_from_feature_columns/input_layer/name_hub_module_embedding/module_apply_default/normalize/RegexReplace_7/pattern", "dnn/input_from_feature_columns/input_layer/name_hub_module_embedding/module_apply_default/normalize/RegexReplace_7/rewrite"], "attr": {"replace_global": {"b": true}}}, {"name": "dnn/input_from_feature_columns/input_layer/name_hub_module_embedding/module_apply_default/normalize/RegexReplace_8", "op": "RegexReplace", "input": ["dnn/input_from_feature_columns/input_layer/name_hub_module_embedding/module_apply_default/normalize/RegexReplace_7", "dnn/input_from_feature_columns/input_layer/name_hub_module_embedding/module_apply_default/normalize/RegexReplace_8/pattern", "dnn/input_from_feature_columns/input_layer/name_hub_module_embedding/module_apply_default/normalize/RegexReplace_8/rewrite"], "attr": {"replace_global": {"b": true}}}, {"name": "dnn/input_from_feature_columns/input_layer/name_hub_module_embedding/module_apply_default/normalize/RegexReplace_9", "op": "RegexReplace", "input": ["dnn/input_from_feature_columns/input_layer/name_hub_module_embedding/module_apply_default/normalize/RegexReplace_8", "dnn/input_from_feature_columns/input_layer/name_hub_module_embedding/module_apply_default/normalize/RegexReplace_9/pattern", "dnn/input_from_feature_columns/input_layer/name_hub_module_embedding/module_apply_default/normalize/RegexReplace_9/rewrite"], "attr": {"replace_global": {"b": true}}}, {"name": "dnn/input_from_feature_columns/input_layer/name_hub_module_embedding/module_apply_default/normalize/RegexReplace_10", "op": "RegexReplace", "input": ["dnn/input_from_feature_columns/input_layer/name_hub_module_embedding/module_apply_default/normalize/RegexReplace_9", "dnn/input_from_feature_columns/input_layer/name_hub_module_embedding/module_apply_default/normalize/RegexReplace_10/pattern", "dnn/input_from_feature_columns/input_layer/name_hub_module_embedding/module_apply_default/normalize/RegexReplace_10/rewrite"], "attr": {"replace_global": {"b": true}}}, {"name": "dnn/input_from_feature_columns/input_layer/name_hub_module_embedding/module_apply_default/normalize/RegexReplace_11", "op": "RegexReplace", "input": ["dnn/input_from_feature_columns/input_layer/name_hub_module_embedding/module_apply_default/normalize/RegexReplace_10", "dnn/input_from_feature_columns/input_layer/name_hub_module_embedding/module_apply_default/normalize/RegexReplace_11/pattern", "dnn/input_from_feature_columns/input_layer/name_hub_module_embedding/module_apply_default/normalize/RegexReplace_11/rewrite"], "attr": {"replace_global": {"b": true}}}, {"name": "dnn/input_from_feature_columns/input_layer/name_hub_module_embedding/module_apply_default/normalize/RegexReplace_12", "op": "RegexReplace", "input": ["dnn/input_from_feature_columns/input_layer/name_hub_module_embedding/module_apply_default/normalize/RegexReplace_11", "dnn/input_from_feature_columns/input_layer/name_hub_module_embedding/module_apply_default/normalize/RegexReplace_12/pattern", "dnn/input_from_feature_columns/input_layer/name_hub_module_embedding/module_apply_default/normalize/RegexReplace_12/rewrite"], "attr": {"replace_global": {"b": true}}}, {"name": "dnn/input_from_feature_columns/input_layer/name_hub_module_embedding/module_apply_default/normalize/RegexReplace_13", "op": "RegexReplace", "input": ["dnn/input_from_feature_columns/input_layer/name_hub_module_embedding/module_apply_default/normalize/RegexReplace_12", "dnn/input_from_feature_columns/input_layer/name_hub_module_embedding/module_apply_default/normalize/RegexReplace_13/pattern", "dnn/input_from_feature_columns/input_layer/name_hub_module_embedding/module_apply_default/normalize/RegexReplace_13/rewrite"], "attr": {"replace_global": {"b": true}}}, {"name": "dnn/input_from_feature_columns/input_layer/name_hub_module_embedding/module_apply_default/normalize/RegexReplace_14", "op": "RegexReplace", "input": ["dnn/input_from_feature_columns/input_layer/name_hub_module_embedding/module_apply_default/normalize/RegexReplace_13", "dnn/input_from_feature_columns/input_layer/name_hub_module_embedding/module_apply_default/normalize/RegexReplace_14/pattern", "dnn/input_from_feature_columns/input_layer/name_hub_module_embedding/module_apply_default/normalize/RegexReplace_14/rewrite"], "attr": {"replace_global": {"b": true}}}, {"name": "dnn/input_from_feature_columns/input_layer/name_hub_module_embedding/module_apply_default/normalize/RegexReplace_15", "op": "RegexReplace", "input": ["dnn/input_from_feature_columns/input_layer/name_hub_module_embedding/module_apply_default/normalize/RegexReplace_14", "dnn/input_from_feature_columns/input_layer/name_hub_module_embedding/module_apply_default/normalize/RegexReplace_15/pattern", "dnn/input_from_feature_columns/input_layer/name_hub_module_embedding/module_apply_default/normalize/RegexReplace_15/rewrite"], "attr": {"replace_global": {"b": true}}}, {"name": "dnn/input_from_feature_columns/input_layer/name_hub_module_embedding/module_apply_default/normalize/RegexReplace_16", "op": "RegexReplace", "input": ["dnn/input_from_feature_columns/input_layer/name_hub_module_embedding/module_apply_default/normalize/RegexReplace_15", "dnn/input_from_feature_columns/input_layer/name_hub_module_embedding/module_apply_default/normalize/RegexReplace_16/pattern", "dnn/input_from_feature_columns/input_layer/name_hub_module_embedding/module_apply_default/normalize/RegexReplace_16/rewrite"], "attr": {"replace_global": {"b": true}}}, {"name": "dnn/input_from_feature_columns/input_layer/name_hub_module_embedding/module_apply_default/normalize/RegexReplace_17", "op": "RegexReplace", "input": ["dnn/input_from_feature_columns/input_layer/name_hub_module_embedding/module_apply_default/normalize/RegexReplace_16", "dnn/input_from_feature_columns/input_layer/name_hub_module_embedding/module_apply_default/normalize/RegexReplace_17/pattern", "dnn/input_from_feature_columns/input_layer/name_hub_module_embedding/module_apply_default/normalize/RegexReplace_17/rewrite"], "attr": {"replace_global": {"b": true}}}, {"name": "dnn/input_from_feature_columns/input_layer/name_hub_module_embedding/module_apply_default/normalize/RegexReplace_18", "op": "RegexReplace", "input": ["dnn/input_from_feature_columns/input_layer/name_hub_module_embedding/module_apply_default/normalize/RegexReplace_17", "dnn/input_from_feature_columns/input_layer/name_hub_module_embedding/module_apply_default/normalize/RegexReplace_18/pattern", "dnn/input_from_feature_columns/input_layer/name_hub_module_embedding/module_apply_default/normalize/RegexReplace_18/rewrite"], "attr": {"replace_global": {"b": true}}}, {"name": "dnn/input_from_feature_columns/input_layer/name_hub_module_embedding/module_apply_default/normalize/RegexReplace_19", "op": "RegexReplace", "input": ["dnn/input_from_feature_columns/input_layer/name_hub_module_embedding/module_apply_default/normalize/RegexReplace_18", "dnn/input_from_feature_columns/input_layer/name_hub_module_embedding/module_apply_default/normalize/RegexReplace_19/pattern", "dnn/input_from_feature_columns/input_layer/name_hub_module_embedding/module_apply_default/normalize/RegexReplace_19/rewrite"], "attr": {"replace_global": {"b": true}}}, {"name": "dnn/input_from_feature_columns/input_layer/name_hub_module_embedding/module_apply_default/normalize/RegexReplace_20", "op": "RegexReplace", "input": ["dnn/input_from_feature_columns/input_layer/name_hub_module_embedding/module_apply_default/normalize/RegexReplace_19", "dnn/input_from_feature_columns/input_layer/name_hub_module_embedding/module_apply_default/normalize/RegexReplace_20/pattern", "dnn/input_from_feature_columns/input_layer/name_hub_module_embedding/module_apply_default/normalize/RegexReplace_20/rewrite"], "attr": {"replace_global": {"b": true}}}, {"name": "dnn/input_from_feature_columns/input_layer/name_hub_module_embedding/module_apply_default/normalize/RegexReplace_21", "op": "RegexReplace", "input": ["dnn/input_from_feature_columns/input_layer/name_hub_module_embedding/module_apply_default/normalize/RegexReplace_20", "dnn/input_from_feature_columns/input_layer/name_hub_module_embedding/module_apply_default/normalize/RegexReplace_21/pattern", "dnn/input_from_feature_columns/input_layer/name_hub_module_embedding/module_apply_default/normalize/RegexReplace_21/rewrite"], "attr": {"replace_global": {"b": true}}}, {"name": "dnn/input_from_feature_columns/input_layer/name_hub_module_embedding/module_apply_default/normalize/RegexReplace_22", "op": "RegexReplace", "input": ["dnn/input_from_feature_columns/input_layer/name_hub_module_embedding/module_apply_default/normalize/RegexReplace_21", "dnn/input_from_feature_columns/input_layer/name_hub_module_embedding/module_apply_default/normalize/RegexReplace_22/pattern", "dnn/input_from_feature_columns/input_layer/name_hub_module_embedding/module_apply_default/normalize/RegexReplace_22/rewrite"], "attr": {"replace_global": {"b": true}}}, {"name": "dnn/input_from_feature_columns/input_layer/name_hub_module_embedding/module_apply_default/normalize/RegexReplace_23", "op": "RegexReplace", "input": ["dnn/input_from_feature_columns/input_layer/name_hub_module_embedding/module_apply_default/normalize/RegexReplace_22", "dnn/input_from_feature_columns/input_layer/name_hub_module_embedding/module_apply_default/normalize/RegexReplace_23/pattern", "dnn/input_from_feature_columns/input_layer/name_hub_module_embedding/module_apply_default/normalize/RegexReplace_23/rewrite"], "attr": {"replace_global": {"b": true}}}, {"name": "dnn/input_from_feature_columns/input_layer/name_hub_module_embedding/module_apply_default/normalize/RegexReplace_24", "op": "RegexReplace", "input": ["dnn/input_from_feature_columns/input_layer/name_hub_module_embedding/module_apply_default/normalize/RegexReplace_23", "dnn/input_from_feature_columns/input_layer/name_hub_module_embedding/module_apply_default/normalize/RegexReplace_24/pattern", "dnn/input_from_feature_columns/input_layer/name_hub_module_embedding/module_apply_default/normalize/RegexReplace_24/rewrite"], "attr": {"replace_global": {"b": true}}}, {"name": "dnn/input_from_feature_columns/input_layer/name_hub_module_embedding/module_apply_default/normalize/RegexReplace_25", "op": "RegexReplace", "input": ["dnn/input_from_feature_columns/input_layer/name_hub_module_embedding/module_apply_default/normalize/RegexReplace_24", "dnn/input_from_feature_columns/input_layer/name_hub_module_embedding/module_apply_default/normalize/RegexReplace_25/pattern", "dnn/input_from_feature_columns/input_layer/name_hub_module_embedding/module_apply_default/normalize/RegexReplace_25/rewrite"], "attr": {"replace_global": {"b": true}}}, {"name": "dnn/input_from_feature_columns/input_layer/name_hub_module_embedding/module_apply_default/normalize/RegexReplace_26", "op": "RegexReplace", "input": ["dnn/input_from_feature_columns/input_layer/name_hub_module_embedding/module_apply_default/normalize/RegexReplace_25", "dnn/input_from_feature_columns/input_layer/name_hub_module_embedding/module_apply_default/normalize/RegexReplace_26/pattern", "dnn/input_from_feature_columns/input_layer/name_hub_module_embedding/module_apply_default/Equal/y"], "attr": {"replace_global": {"b": true}}}, {"name": "dnn/input_from_feature_columns/input_layer/name_hub_module_embedding/module_apply_default/RegexReplace", "op": "RegexReplace", "input": ["dnn/input_from_feature_columns/input_layer/name_hub_module_embedding/module_apply_default/normalize/RegexReplace_26", "dnn/input_from_feature_columns/input_layer/name_hub_module_embedding/module_apply_default/RegexReplace/pattern", "dnn/input_from_feature_columns/input_layer/name_hub_module_embedding/module_apply_default/Equal/y"], "attr": {"replace_global": {"b": true}}}, {"name": "dnn/input_from_feature_columns/input_layer/name_hub_module_embedding/module_apply_default/Equal", "op": "Equal", "input": ["dnn/input_from_feature_columns/input_layer/name_hub_module_embedding/module_apply_default/Equal/y", "dnn/input_from_feature_columns/input_layer/name_hub_module_embedding/module_apply_default/RegexReplace"], "attr": {"T": {"type": "DT_STRING"}}}, {"name": "dnn/input_from_feature_columns/input_layer/name_hub_module_embedding/module_apply_default/StringJoin", "op": "StringJoin", "input": ["dnn/input_from_feature_columns/input_layer/name_hub_module_embedding/module_apply_default/StringJoin/inputs_0", "dnn/input_from_feature_columns/input_layer/name_hub_module_embedding/module_apply_default/RegexReplace", "dnn/input_from_feature_columns/input_layer/name_hub_module_embedding/module_apply_default/StringJoin/inputs_2"], "attr": {"N": {"i": "3"}, "separator": {"s": "IA=="}}}, {"name": "dnn/input_from_feature_columns/input_layer/name_hub_module_embedding/module_apply_default/Select", "op": "Select", "input": ["dnn/input_from_feature_columns/input_layer/name_hub_module_embedding/module_apply_default/Equal", "dnn/input_from_feature_columns/input_layer/name_hub_module_embedding/module_apply_default/RegexReplace", "dnn/input_from_feature_columns/input_layer/name_hub_module_embedding/module_apply_default/StringJoin"], "attr": {"T": {"type": "DT_STRING"}}}, {"name": "dnn/input_from_feature_columns/input_layer/name_hub_module_embedding/module_apply_default/RegexReplace_1", "op": "RegexReplace", "input": ["dnn/input_from_feature_columns/input_layer/name_hub_module_embedding/module_apply_default/Select", "dnn/input_from_feature_columns/input_layer/name_hub_module_embedding/module_apply_default/RegexReplace/pattern", "dnn/input_from_feature_columns/input_layer/name_hub_module_embedding/module_apply_default/RegexReplace_1/rewrite"], "attr": {"replace_global": {"b": true}}}, {"name": "dnn/input_from_feature_columns/input_layer/name_hub_module_embedding/module_apply_default/tokenize/StringSplit", "op": "StringSplit", "input": ["dnn/input_from_feature_columns/input_layer/name_hub_module_embedding/module_apply_default/RegexReplace_1", "dnn/input_from_feature_columns/input_layer/name_hub_module_embedding/module_apply_default/tokenize/Const"], "attr": {"skip_empty": {"b": true}}}, {"name": "dnn/input_from_feature_columns/input_layer/name_hub_module_embedding/module_apply_default/SparseFillEmptyRows/SparseFillEmptyRows", "op": "SparseFillEmptyRows", "input": ["dnn/input_from_feature_columns/input_layer/name_hub_module_embedding/module_apply_default/tokenize/StringSplit", "dnn/input_from_feature_columns/input_layer/name_hub_module_embedding/module_apply_default/tokenize/StringSplit:1", "dnn/input_from_feature_columns/input_layer/name_hub_module_embedding/module_apply_default/tokenize/StringSplit:2", "dnn/input_from_feature_columns/input_layer/name_hub_module_embedding/module_apply_default/Equal/y"], "attr": {"T": {"type": "DT_STRING"}}}, {"name": "dnn/input_from_feature_columns/input_layer/name_hub_module_embedding/module_apply_default/Max", "op": "Max", "input": ["dnn/input_from_feature_columns/input_layer/name_hub_module_embedding/module_apply_default/SparseFillEmptyRows/SparseFillEmptyRows", "dnn/head/ExpandDims/dim"], "attr": {"Tidx": {"type": "DT_INT32"}, "keep_dims": {"b": false}, "T": {"type": "DT_INT64"}}}, {"name": "dnn/input_from_feature_columns/input_layer/name_hub_module_embedding/module_apply_default/Add", "op": "Add", "input": ["dnn/input_from_feature_columns/input_layer/name_hub_module_embedding/module_apply_default/Max", "dnn/input_from_feature_columns/input_layer/name_hub_module_embedding/module_apply_default/ones_like"], "attr": {"T": {"type": "DT_INT64"}}}, {"name": "dnn/input_from_feature_columns/input_layer/name_hub_module_embedding/module_apply_default/Maximum", "op": "Maximum", "input": ["dnn/input_from_feature_columns/input_layer/name_hub_module_embedding/module_apply_default/Const", "dnn/input_from_feature_columns/input_layer/name_hub_module_embedding/module_apply_default/Add"], "attr": {"T": {"type": "DT_INT64"}}}, {"name": "dnn/input_from_feature_columns/input_layer/name_hub_module_embedding/module_apply_default/compound_bigrams/SparseToDense", "op": "SparseToDense", "input": ["dnn/input_from_feature_columns/input_layer/name_hub_module_embedding/module_apply_default/SparseFillEmptyRows/SparseFillEmptyRows", "dnn/input_from_feature_columns/input_layer/name_hub_module_embedding/module_apply_default/Maximum", "dnn/input_from_feature_columns/input_layer/name_hub_module_embedding/module_apply_default/SparseFillEmptyRows/SparseFillEmptyRows:1", "dnn/input_from_feature_columns/input_layer/name_hub_module_embedding/module_apply_default/Equal/y"], "attr": {"Tindices": {"type": "DT_INT64"}, "validate_indices": {"b": true}, "T": {"type": "DT_STRING"}}}, {"name": "dnn/input_from_feature_columns/input_layer/name_hub_module_embedding/module_apply_default/compound_bigrams/ExpandDims", "op": "ExpandDims", "input": ["dnn/input_from_feature_columns/input_layer/name_hub_module_embedding/module_apply_default/compound_bigrams/SparseToDense", "dnn/input_from_feature_columns/input_layer/name_hub_module_embedding/module_apply_default/compound_bigrams/ExpandDims/dim"], "attr": {"Tdim": {"type": "DT_INT32"}, "T": {"type": "DT_STRING"}}}, {"name": "dnn/input_from_feature_columns/input_layer/name_hub_module_embedding/module_apply_default/compound_bigrams/strided_slice_1", "op": "StridedSlice", "input": ["dnn/input_from_feature_columns/input_layer/name_hub_module_embedding/module_apply_default/compound_bigrams/SparseToDense", "dnn/input_from_feature_columns/input_layer/name_hub_module_embedding/module_apply_default/compound_bigrams/strided_slice_1/stack", "dnn/input_from_feature_columns/input_layer/name_hub_module_embedding/module_apply_default/compound_bigrams/strided_slice_1/stack_1", "dnn/input_from_feature_columns/input_layer/name_hub_module_embedding/module_apply_default/compound_bigrams/strided_slice_1/stack_2"], "attr": {"Index": {"type": "DT_INT32"}, "T": {"type": "DT_STRING"}, "shrink_axis_mask": {"i": "0"}, "ellipsis_mask": {"i": "0"}, "begin_mask": {"i": "1"}, "new_axis_mask": {"i": "0"}, "end_mask": {"i": "3"}}}, {"name": "dnn/input_from_feature_columns/input_layer/name_hub_module_embedding/module_apply_default/compound_bigrams/Shape", "op": "Shape", "input": ["dnn/input_from_feature_columns/input_layer/name_hub_module_embedding/module_apply_default/compound_bigrams/SparseToDense"], "attr": {"T": {"type": "DT_STRING"}, "out_type": {"type": "DT_INT32"}}}, {"name": "dnn/input_from_feature_columns/input_layer/name_hub_module_embedding/module_apply_default/compound_bigrams/strided_slice", "op": "StridedSlice", "input": ["dnn/input_from_feature_columns/input_layer/name_hub_module_embedding/module_apply_default/compound_bigrams/Shape", "dnn/head/strided_slice/stack", "dnn/head/strided_slice/stack_1", "dnn/head/strided_slice/stack_1"], "attr": {"shrink_axis_mask": {"i": "1"}, "ellipsis_mask": {"i": "0"}, "begin_mask": {"i": "0"}, "new_axis_mask": {"i": "0"}, "end_mask": {"i": "0"}, "T": {"type": "DT_INT32"}, "Index": {"type": "DT_INT32"}}}, {"name": "dnn/input_from_feature_columns/input_layer/name_hub_module_embedding/module_apply_default/compound_bigrams/Fill/dims", "op": "Pack", "input": ["dnn/input_from_feature_columns/input_layer/name_hub_module_embedding/module_apply_default/compound_bigrams/strided_slice", "dnn/head/Tile/multiples/1"], "attr": {"T": {"type": "DT_INT32"}, "axis": {"i": "0"}, "N": {"i": "2"}}}, {"name": "dnn/input_from_feature_columns/input_layer/name_hub_module_embedding/module_apply_default/compound_bigrams/Fill", "op": "Fill", "input": ["dnn/input_from_feature_columns/input_layer/name_hub_module_embedding/module_apply_default/compound_bigrams/Fill/dims", "dnn/input_from_feature_columns/input_layer/name_hub_module_embedding/module_apply_default/Equal/y"], "attr": {"T": {"type": "DT_STRING"}, "index_type": {"type": "DT_INT32"}}}, {"name": "dnn/input_from_feature_columns/input_layer/name_hub_module_embedding/module_apply_default/compound_bigrams/concat", "op": "ConcatV2", "input": ["dnn/input_from_feature_columns/input_layer/name_hub_module_embedding/module_apply_default/compound_bigrams/strided_slice_1", "dnn/input_from_feature_columns/input_layer/name_hub_module_embedding/module_apply_default/compound_bigrams/Fill", "dnn/head/Tile/multiples/1"], "attr": {"T": {"type": "DT_STRING"}, "N": {"i": "2"}, "Tidx": {"type": "DT_INT32"}}}, {"name": "dnn/input_from_feature_columns/input_layer/name_hub_module_embedding/module_apply_default/compound_bigrams/StringJoin", "op": "StringJoin", "input": ["dnn/input_from_feature_columns/input_layer/name_hub_module_embedding/module_apply_default/compound_bigrams/SparseToDense", "dnn/input_from_feature_columns/input_layer/name_hub_module_embedding/module_apply_default/compound_bigrams/concat"], "attr": {"separator": {"s": "4paB"}, "N": {"i": "2"}}}, {"name": "dnn/input_from_feature_columns/input_layer/name_hub_module_embedding/module_apply_default/compound_bigrams/ExpandDims_1", "op": "ExpandDims", "input": ["dnn/input_from_feature_columns/input_layer/name_hub_module_embedding/module_apply_default/compound_bigrams/StringJoin", "dnn/input_from_feature_columns/input_layer/name_hub_module_embedding/module_apply_default/compound_bigrams/ExpandDims/dim"], "attr": {"Tdim": {"type": "DT_INT32"}, "T": {"type": "DT_STRING"}}}, {"name": "dnn/input_from_feature_columns/input_layer/name_hub_module_embedding/module_apply_default/compound_bigrams/concat_1", "op": "ConcatV2", "input": ["dnn/input_from_feature_columns/input_layer/name_hub_module_embedding/module_apply_default/compound_bigrams/ExpandDims", "dnn/input_from_feature_columns/input_layer/name_hub_module_embedding/module_apply_default/compound_bigrams/ExpandDims_1", "dnn/input_from_feature_columns/input_layer/name_hub_module_embedding/module_apply_default/compound_bigrams/concat_1/axis"], "attr": {"Tidx": {"type": "DT_INT32"}, "T": {"type": "DT_STRING"}, "N": {"i": "2"}}}, {"name": "dnn/input_from_feature_columns/input_layer/name_hub_module_embedding/module_apply_default/compound_bigrams/RegexReplace", "op": "RegexReplace", "input": ["dnn/input_from_feature_columns/input_layer/name_hub_module_embedding/module_apply_default/compound_bigrams/concat_1", "dnn/input_from_feature_columns/input_layer/name_hub_module_embedding/module_apply_default/compound_bigrams/RegexReplace/pattern", "dnn/input_from_feature_columns/input_layer/name_hub_module_embedding/module_apply_default/Equal/y"], "attr": {"replace_global": {"b": true}}}, {"name": "dnn/input_from_feature_columns/input_layer/name_hub_module_embedding/module_apply_default/compound_bigrams/RegexReplace_1", "op": "RegexReplace", "input": ["dnn/input_from_feature_columns/input_layer/name_hub_module_embedding/module_apply_default/compound_bigrams/RegexReplace", "dnn/input_from_feature_columns/input_layer/name_hub_module_embedding/module_apply_default/compound_bigrams/RegexReplace_1/pattern", "dnn/input_from_feature_columns/input_layer/name_hub_module_embedding/module_apply_default/Equal/y"], "attr": {"replace_global": {"b": true}}}, {"name": "dnn/input_from_feature_columns/input_layer/name_hub_module_embedding/module_apply_default/compound_bigrams/RegexReplace_2", "op": "RegexReplace", "input": ["dnn/input_from_feature_columns/input_layer/name_hub_module_embedding/module_apply_default/compound_bigrams/RegexReplace_1", "dnn/input_from_feature_columns/input_layer/name_hub_module_embedding/module_apply_default/compound_bigrams/RegexReplace_2/pattern", "dnn/input_from_feature_columns/input_layer/name_hub_module_embedding/module_apply_default/Equal/y"], "attr": {"replace_global": {"b": true}}}, {"name": "dnn/input_from_feature_columns/input_layer/name_hub_module_embedding/module_apply_default/compound_bigrams/strided_slice_2", "op": "StridedSlice", "input": ["dnn/input_from_feature_columns/input_layer/name_hub_module_embedding/module_apply_default/compound_bigrams/RegexReplace_2", "dnn/input_from_feature_columns/input_layer/name_hub_module_embedding/module_apply_default/compound_bigrams/strided_slice_2/stack", "dnn/input_from_feature_columns/input_layer/name_hub_module_embedding/module_apply_default/compound_bigrams/strided_slice_2/stack_1", "dnn/input_from_feature_columns/input_layer/name_hub_module_embedding/module_apply_default/compound_bigrams/strided_slice_2/stack_2"], "attr": {"T": {"type": "DT_STRING"}, "Index": {"type": "DT_INT32"}, "shrink_axis_mask": {"i": "4"}, "begin_mask": {"i": "3"}, "ellipsis_mask": {"i": "0"}, "new_axis_mask": {"i": "0"}, "end_mask": {"i": "3"}}}, {"name": "dnn/input_from_feature_columns/input_layer/name_hub_module_embedding/module_apply_default/compound_bigrams/strided_slice_3", "op": "StridedSlice", "input": ["dnn/input_from_feature_columns/input_layer/name_hub_module_embedding/module_apply_default/compound_bigrams/RegexReplace_2", "dnn/input_from_feature_columns/input_layer/name_hub_module_embedding/module_apply_default/compound_bigrams/strided_slice_2/stack_1", "dnn/input_from_feature_columns/input_layer/name_hub_module_embedding/module_apply_default/compound_bigrams/strided_slice_3/stack_1", "dnn/input_from_feature_columns/input_layer/name_hub_module_embedding/module_apply_default/compound_bigrams/strided_slice_2/stack_2"], "attr": {"shrink_axis_mask": {"i": "4"}, "ellipsis_mask": {"i": "0"}, "begin_mask": {"i": "3"}, "new_axis_mask": {"i": "0"}, "end_mask": {"i": "3"}, "T": {"type": "DT_STRING"}, "Index": {"type": "DT_INT32"}}}, {"name": "dnn/input_from_feature_columns/input_layer/name_hub_module_embedding/module_apply_default/compound_bigrams/concat_2", "op": "ConcatV2", "input": ["dnn/input_from_feature_columns/input_layer/name_hub_module_embedding/module_apply_default/compound_bigrams/strided_slice_2", "dnn/input_from_feature_columns/input_layer/name_hub_module_embedding/module_apply_default/compound_bigrams/strided_slice_3", "dnn/head/Tile/multiples/1"], "attr": {"Tidx": {"type": "DT_INT32"}, "T": {"type": "DT_STRING"}, "N": {"i": "2"}}}, {"name": "dnn/input_from_feature_columns/input_layer/name_hub_module_embedding/module_apply_default/compound_bigrams/boolean_mask/Shape_1", "op": "Shape", "input": ["dnn/input_from_feature_columns/input_layer/name_hub_module_embedding/module_apply_default/compound_bigrams/concat_2"], "attr": {"T": {"type": "DT_STRING"}, "out_type": {"type": "DT_INT32"}}}, {"name": "dnn/input_from_feature_columns/input_layer/name_hub_module_embedding/module_apply_default/compound_bigrams/NotEqual", "op": "NotEqual", "input": ["dnn/input_from_feature_columns/input_layer/name_hub_module_embedding/module_apply_default/Equal/y", "dnn/input_from_feature_columns/input_layer/name_hub_module_embedding/module_apply_default/compound_bigrams/concat_2"], "attr": {"T": {"type": "DT_STRING"}}}, {"name": "dnn/input_from_feature_columns/input_layer/name_hub_module_embedding/module_apply_default/compound_bigrams/boolean_mask/strided_slice_1", "op": "StridedSlice", "input": ["dnn/input_from_feature_columns/input_layer/name_hub_module_embedding/module_apply_default/compound_bigrams/boolean_mask/Shape_1", "dnn/head/strided_slice/stack", "dnn/head/strided_slice/stack", "dnn/head/strided_slice/stack_1"], "attr": {"Index": {"type": "DT_INT32"}, "T": {"type": "DT_INT32"}, "shrink_axis_mask": {"i": "0"}, "ellipsis_mask": {"i": "0"}, "begin_mask": {"i": "1"}, "new_axis_mask": {"i": "0"}, "end_mask": {"i": "0"}}}, {"name": "dnn/input_from_feature_columns/input_layer/name_hub_module_embedding/module_apply_default/compound_bigrams/boolean_mask/Prod", "op": "Prod", "input": ["dnn/input_from_feature_columns/input_layer/name_hub_module_embedding/module_apply_default/compound_bigrams/boolean_mask/Shape_1", "dnn/head/strided_slice/stack"], "attr": {"T": {"type": "DT_INT32"}, "Tidx": {"type": "DT_INT32"}, "keep_dims": {"b": false}}}, {"name": "dnn/input_from_feature_columns/input_layer/name_hub_module_embedding/module_apply_default/compound_bigrams/boolean_mask/strided_slice_2", "op": "StridedSlice", "input": ["dnn/input_from_feature_columns/input_layer/name_hub_module_embedding/module_apply_default/compound_bigrams/boolean_mask/Shape_1", "dnn/input_from_feature_columns/input_layer/name_hub_module_embedding/module_apply_default/compound_bigrams/boolean_mask/strided_slice/stack_1", "dnn/head/strided_slice/stack", "dnn/head/strided_slice/stack_1"], "attr": {"shrink_axis_mask": {"i": "0"}, "begin_mask": {"i": "0"}, "ellipsis_mask": {"i": "0"}, "new_axis_mask": {"i": "0"}, "end_mask": {"i": "1"}, "Index": {"type": "DT_INT32"}, "T": {"type": "DT_INT32"}}}, {"name": "dnn/input_from_feature_columns/input_layer/name_hub_module_embedding/module_apply_default/compound_bigrams/boolean_mask/Reshape_1", "op": "Reshape", "input": ["dnn/input_from_feature_columns/input_layer/name_hub_module_embedding/module_apply_default/compound_bigrams/NotEqual", "dnn/input_from_feature_columns/input_layer/name_hub_module_embedding/module_apply_default/Encoder_en/DNN/embedding_lookup_sparse/embedding_lookup/Reshape/shape"], "attr": {"T": {"type": "DT_BOOL"}, "Tshape": {"type": "DT_INT32"}}}, {"name": "dnn/input_from_feature_columns/input_layer/name_hub_module_embedding/module_apply_default/compound_bigrams/Where", "op": "Where", "input": ["dnn/input_from_feature_columns/input_layer/name_hub_module_embedding/module_apply_default/compound_bigrams/NotEqual"], "attr": {"T": {"type": "DT_BOOL"}}}, {"name": "ConstantFolding/dnn/input_from_feature_columns/input_layer/name_hub_module_embedding/module_apply_default/compound_bigrams/boolean_mask/concat/values_1_const_axis", "op": "Const", "input": ["^dnn/input_from_feature_columns/input_layer/name_hub_module_embedding/module_apply_default/compound_bigrams/boolean_mask/Prod"], "attr": {"value": {"tensor": {"dtype": "DT_INT32", "tensorShape": {}}}, "dtype": {"type": "DT_INT32"}}}, {"name": "dnn/input_from_feature_columns/input_layer/name_hub_module_embedding/module_apply_default/compound_bigrams/boolean_mask/Where", "op": "Where", "input": ["dnn/input_from_feature_columns/input_layer/name_hub_module_embedding/module_apply_default/compound_bigrams/boolean_mask/Reshape_1"], "attr": {"T": {"type": "DT_BOOL"}}}, {"name": "dnn/input_from_feature_columns/input_layer/name_hub_module_embedding/module_apply_default/Encoder_en/DNN/embedding_lookup_sparse/strided_slice", "op": "StridedSlice", "input": ["dnn/input_from_feature_columns/input_layer/name_hub_module_embedding/module_apply_default/compound_bigrams/Where", "dnn/input_from_feature_columns/input_layer/name_hub_module_embedding/module_apply_default/compound_bigrams/strided_slice_1/stack_1", "dnn/input_from_feature_columns/input_layer/name_hub_module_embedding/module_apply_default/compound_bigrams/strided_slice_1/stack", "dnn/input_from_feature_columns/input_layer/name_hub_module_embedding/module_apply_default/compound_bigrams/strided_slice_1/stack_2"], "attr": {"begin_mask": {"i": "1"}, "ellipsis_mask": {"i": "0"}, "new_axis_mask": {"i": "0"}, "end_mask": {"i": "1"}, "T": {"type": "DT_INT64"}, "Index": {"type": "DT_INT32"}, "shrink_axis_mask": {"i": "2"}}}, {"name": "dnn/input_from_feature_columns/input_layer/name_hub_module_embedding/module_apply_default/compound_bigrams/boolean_mask/concat/values_1", "op": "ExpandDims", "input": ["dnn/input_from_feature_columns/input_layer/name_hub_module_embedding/module_apply_default/compound_bigrams/boolean_mask/Prod", "ConstantFolding/dnn/input_from_feature_columns/input_layer/name_hub_module_embedding/module_apply_default/compound_bigrams/boolean_mask/concat/values_1_const_axis"], "attr": {"T": {"type": "DT_INT32"}, "Tdim": {"type": "DT_INT32"}}}, {"name": "dnn/input_from_feature_columns/input_layer/name_hub_module_embedding/module_apply_default/compound_bigrams/boolean_mask/Squeeze", "op": "Squeeze", "input": ["dnn/input_from_feature_columns/input_layer/name_hub_module_embedding/module_apply_default/compound_bigrams/boolean_mask/Where"], "attr": {"squeeze_dims": {"list": {"i": ["1"]}}, "T": {"type": "DT_INT64"}}}, {"name": "dnn/input_from_feature_columns/input_layer/name_hub_module_embedding/module_apply_default/Encoder_en/DNN/embedding_lookup_sparse/Cast", "op": "Cast", "input": ["dnn/input_from_feature_columns/input_layer/name_hub_module_embedding/module_apply_default/Encoder_en/DNN/embedding_lookup_sparse/strided_slice"], "attr": {"SrcT": {"type": "DT_INT64"}, "Truncate": {"b": false}, "DstT": {"type": "DT_INT32"}}}, {"name": "dnn/input_from_feature_columns/input_layer/name_hub_module_embedding/module_apply_default/compound_bigrams/boolean_mask/concat", "op": "ConcatV2", "input": ["dnn/input_from_feature_columns/input_layer/name_hub_module_embedding/module_apply_default/compound_bigrams/boolean_mask/strided_slice_1", "dnn/input_from_feature_columns/input_layer/name_hub_module_embedding/module_apply_default/compound_bigrams/boolean_mask/concat/values_1", "dnn/input_from_feature_columns/input_layer/name_hub_module_embedding/module_apply_default/compound_bigrams/boolean_mask/strided_slice_2", "dnn/head/ExpandDims/dim"], "attr": {"N": {"i": "3"}, "Tidx": {"type": "DT_INT32"}, "T": {"type": "DT_INT32"}}}, {"name": "dnn/input_from_feature_columns/input_layer/name_hub_module_embedding/module_apply_default/compound_bigrams/boolean_mask/Reshape", "op": "Reshape", "input": ["dnn/input_from_feature_columns/input_layer/name_hub_module_embedding/module_apply_default/compound_bigrams/concat_2", "dnn/input_from_feature_columns/input_layer/name_hub_module_embedding/module_apply_default/compound_bigrams/boolean_mask/concat"], "attr": {"T": {"type": "DT_STRING"}, "Tshape": {"type": "DT_INT32"}}}, {"name": "dnn/input_from_feature_columns/input_layer/name_hub_module_embedding/module_apply_default/compound_bigrams/boolean_mask/Gather", "op": "Gather", "input": ["dnn/input_from_feature_columns/input_layer/name_hub_module_embedding/module_apply_default/compound_bigrams/boolean_mask/Reshape", "dnn/input_from_feature_columns/input_layer/name_hub_module_embedding/module_apply_default/compound_bigrams/boolean_mask/Squeeze"], "attr": {"Tindices": {"type": "DT_INT64"}, "validate_indices": {"b": true}, "Tparams": {"type": "DT_STRING"}}}, {"name": "dnn/input_from_feature_columns/input_layer/name_hub_module_embedding/module_apply_default/string_to_index_Lookup/hash_table_Lookup", "op": "LookupTableFindV2", "input": ["dnn/input_from_feature_columns/input_layer/name_hub_module_embedding/module/string_to_index/hash_table", "dnn/input_from_feature_columns/input_layer/name_hub_module_embedding/module_apply_default/compound_bigrams/boolean_mask/Gather", "dnn/input_from_feature_columns/input_layer/name_hub_module_embedding/module_apply_default/string_to_index/hash_table/Const"], "attr": {"Tin": {"type": "DT_STRING"}, "Tout": {"type": "DT_INT64"}}}, {"name": "dnn/input_from_feature_columns/input_layer/name_hub_module_embedding/module_apply_default/string_to_index_Lookup/hash_bucket", "op": "StringToHashBucketFast", "input": ["dnn/input_from_feature_columns/input_layer/name_hub_module_embedding/module_apply_default/compound_bigrams/boolean_mask/Gather"], "attr": {"num_buckets": {"i": "400000"}}}, {"name": "dnn/input_from_feature_columns/input_layer/name_hub_module_embedding/module_apply_default/string_to_index_Lookup/NotEqual", "op": "NotEqual", "input": ["dnn/input_from_feature_columns/input_layer/name_hub_module_embedding/module_apply_default/string_to_index/hash_table/Const", "dnn/input_from_feature_columns/input_layer/name_hub_module_embedding/module_apply_default/string_to_index_Lookup/hash_table_Lookup"], "attr": {"T": {"type": "DT_INT64"}}}, {"name": "dnn/input_from_feature_columns/input_layer/name_hub_module_embedding/module_apply_default/string_to_index_Lookup/Add", "op": "Add", "input": ["dnn/input_from_feature_columns/input_layer/name_hub_module_embedding/module_apply_default/string_to_index_Lookup/hash_bucket", "dnn/input_from_feature_columns/input_layer/name_hub_module_embedding/module_apply_default/string_to_index_Lookup/hash_table_Size"], "attr": {"T": {"type": "DT_INT64"}}}, {"name": "dnn/input_from_feature_columns/input_layer/name_hub_module_embedding/module_apply_default/string_to_index_Lookup", "op": "Select", "input": ["dnn/input_from_feature_columns/input_layer/name_hub_module_embedding/module_apply_default/string_to_index_Lookup/NotEqual", "dnn/input_from_feature_columns/input_layer/name_hub_module_embedding/module_apply_default/string_to_index_Lookup/hash_table_Lookup", "dnn/input_from_feature_columns/input_layer/name_hub_module_embedding/module_apply_default/string_to_index_Lookup/Add"], "attr": {"T": {"type": "DT_INT64"}}}, {"name": "dnn/input_from_feature_columns/input_layer/name_hub_module_embedding/module_apply_default/Encoder_en/DNN/embedding_lookup_sparse/Unique", "op": "Unique", "input": ["dnn/input_from_feature_columns/input_layer/name_hub_module_embedding/module_apply_default/string_to_index_Lookup"], "attr": {"out_idx": {"type": "DT_INT32"}, "T": {"type": "DT_INT64"}}}, {"name": "dnn/input_from_feature_columns/input_layer/name_hub_module_embedding/module_apply_default/Encoder_en/DNN/embedding_lookup_sparse/embedding_lookup/Size", "op": "Size", "input": ["dnn/input_from_feature_columns/input_layer/name_hub_module_embedding/module_apply_default/Encoder_en/DNN/embedding_lookup_sparse/Unique"], "attr": {"T": {"type": "DT_INT64"}, "out_type": {"type": "DT_INT32"}}}, {"name": "dnn/input_from_feature_columns/input_layer/name_hub_module_embedding/module_apply_default/Encoder_en/DNN/embedding_lookup_sparse/embedding_lookup/floordiv", "op": "FloorDiv", "input": ["dnn/input_from_feature_columns/input_layer/name_hub_module_embedding/module_apply_default/Encoder_en/DNN/embedding_lookup_sparse/Unique", "dnn/input_from_feature_columns/input_layer/name_hub_module_embedding/module_apply_default/Encoder_en/DNN/embedding_lookup_sparse/embedding_lookup/floordiv/y"], "attr": {"T": {"type": "DT_INT64"}}}, {"name": "dnn/input_from_feature_columns/input_layer/name_hub_module_embedding/module_apply_default/Encoder_en/DNN/embedding_lookup_sparse/embedding_lookup/mod", "op": "FloorMod", "input": ["dnn/input_from_feature_columns/input_layer/name_hub_module_embedding/module_apply_default/Encoder_en/DNN/embedding_lookup_sparse/Unique", "dnn/input_from_feature_columns/input_layer/name_hub_module_embedding/module_apply_default/Encoder_en/DNN/embedding_lookup_sparse/embedding_lookup/floordiv/y"], "attr": {"T": {"type": "DT_INT64"}}}, {"name": "dnn/input_from_feature_columns/input_layer/name_hub_module_embedding/module_apply_default/Encoder_en/DNN/embedding_lookup_sparse/embedding_lookup/range", "op": "Range", "input": ["dnn/head/ExpandDims/dim", "dnn/input_from_feature_columns/input_layer/name_hub_module_embedding/module_apply_default/Encoder_en/DNN/embedding_lookup_sparse/embedding_lookup/Size", "dnn/head/Tile/multiples/1"], "attr": {"Tidx": {"type": "DT_INT32"}}}, {"name": "dnn/input_from_feature_columns/input_layer/name_hub_module_embedding/module_apply_default/Encoder_en/DNN/embedding_lookup_sparse/embedding_lookup/Cast", "op": "Cast", "input": ["dnn/input_from_feature_columns/input_layer/name_hub_module_embedding/module_apply_default/Encoder_en/DNN/embedding_lookup_sparse/embedding_lookup/mod"], "attr": {"SrcT": {"type": "DT_INT64"}, "Truncate": {"b": false}, "DstT": {"type": "DT_INT32"}}}, {"name": "dnn/input_from_feature_columns/input_layer/name_hub_module_embedding/module_apply_default/Encoder_en/DNN/embedding_lookup_sparse/embedding_lookup/DynamicPartition_1", "op": "DynamicPartition", "input": ["dnn/input_from_feature_columns/input_layer/name_hub_module_embedding/module_apply_default/Encoder_en/DNN/embedding_lookup_sparse/embedding_lookup/range", "dnn/input_from_feature_columns/input_layer/name_hub_module_embedding/module_apply_default/Encoder_en/DNN/embedding_lookup_sparse/embedding_lookup/Cast"], "attr": {"T": {"type": "DT_INT32"}, "num_partitions": {"i": "17"}}}, {"name": "dnn/input_from_feature_columns/input_layer/name_hub_module_embedding/module_apply_default/Encoder_en/DNN/embedding_lookup_sparse/embedding_lookup/DynamicPartition", "op": "DynamicPartition", "input": ["dnn/input_from_feature_columns/input_layer/name_hub_module_embedding/module_apply_default/Encoder_en/DNN/embedding_lookup_sparse/embedding_lookup/floordiv", "dnn/input_from_feature_columns/input_layer/name_hub_module_embedding/module_apply_default/Encoder_en/DNN/embedding_lookup_sparse/embedding_lookup/Cast"], "attr": {"T": {"type": "DT_INT64"}, "num_partitions": {"i": "17"}}}, {"name": "dnn/input_from_feature_columns/input_layer/name_hub_module_embedding/module_apply_default/Encoder_en/DNN/embedding_lookup_sparse/embedding_lookup/Gather", "op": "Gather", "input": ["dnn/input_from_feature_columns/input_layer/name_hub_module_embedding/module/Embeddings_en/sharded_0", "dnn/input_from_feature_columns/input_layer/name_hub_module_embedding/module_apply_default/Encoder_en/DNN/embedding_lookup_sparse/embedding_lookup/DynamicPartition"], "attr": {"validate_indices": {"b": true}, "Tparams": {"type": "DT_FLOAT"}, "Tindices": {"type": "DT_INT64"}}}, {"name": "dnn/input_from_feature_columns/input_layer/name_hub_module_embedding/module_apply_default/Encoder_en/DNN/embedding_lookup_sparse/embedding_lookup/Gather_1", "op": "Gather", "input": ["dnn/input_from_feature_columns/input_layer/name_hub_module_embedding/module/Embeddings_en/sharded_1", "dnn/input_from_feature_columns/input_layer/name_hub_module_embedding/module_apply_default/Encoder_en/DNN/embedding_lookup_sparse/embedding_lookup/DynamicPartition:1"], "attr": {"validate_indices": {"b": true}, "Tparams": {"type": "DT_FLOAT"}, "Tindices": {"type": "DT_INT64"}}}, {"name": "dnn/input_from_feature_columns/input_layer/name_hub_module_embedding/module_apply_default/Encoder_en/DNN/embedding_lookup_sparse/embedding_lookup/Gather_2", "op": "Gather", "input": ["dnn/input_from_feature_columns/input_layer/name_hub_module_embedding/module/Embeddings_en/sharded_2", "dnn/input_from_feature_columns/input_layer/name_hub_module_embedding/module_apply_default/Encoder_en/DNN/embedding_lookup_sparse/embedding_lookup/DynamicPartition:2"], "attr": {"Tindices": {"type": "DT_INT64"}, "validate_indices": {"b": true}, "Tparams": {"type": "DT_FLOAT"}}}, {"name": "dnn/input_from_feature_columns/input_layer/name_hub_module_embedding/module_apply_default/Encoder_en/DNN/embedding_lookup_sparse/embedding_lookup/Gather_3", "op": "Gather", "input": ["dnn/input_from_feature_columns/input_layer/name_hub_module_embedding/module/Embeddings_en/sharded_3", "dnn/input_from_feature_columns/input_layer/name_hub_module_embedding/module_apply_default/Encoder_en/DNN/embedding_lookup_sparse/embedding_lookup/DynamicPartition:3"], "attr": {"Tindices": {"type": "DT_INT64"}, "validate_indices": {"b": true}, "Tparams": {"type": "DT_FLOAT"}}}, {"name": "dnn/input_from_feature_columns/input_layer/name_hub_module_embedding/module_apply_default/Encoder_en/DNN/embedding_lookup_sparse/embedding_lookup/Gather_4", "op": "Gather", "input": ["dnn/input_from_feature_columns/input_layer/name_hub_module_embedding/module/Embeddings_en/sharded_4", "dnn/input_from_feature_columns/input_layer/name_hub_module_embedding/module_apply_default/Encoder_en/DNN/embedding_lookup_sparse/embedding_lookup/DynamicPartition:4"], "attr": {"Tindices": {"type": "DT_INT64"}, "validate_indices": {"b": true}, "Tparams": {"type": "DT_FLOAT"}}}, {"name": "dnn/input_from_feature_columns/input_layer/name_hub_module_embedding/module_apply_default/Encoder_en/DNN/embedding_lookup_sparse/embedding_lookup/Gather_5", "op": "Gather", "input": ["dnn/input_from_feature_columns/input_layer/name_hub_module_embedding/module/Embeddings_en/sharded_5", "dnn/input_from_feature_columns/input_layer/name_hub_module_embedding/module_apply_default/Encoder_en/DNN/embedding_lookup_sparse/embedding_lookup/DynamicPartition:5"], "attr": {"validate_indices": {"b": true}, "Tparams": {"type": "DT_FLOAT"}, "Tindices": {"type": "DT_INT64"}}}, {"name": "dnn/input_from_feature_columns/input_layer/name_hub_module_embedding/module_apply_default/Encoder_en/DNN/embedding_lookup_sparse/embedding_lookup/Gather_6", "op": "Gather", "input": ["dnn/input_from_feature_columns/input_layer/name_hub_module_embedding/module/Embeddings_en/sharded_6", "dnn/input_from_feature_columns/input_layer/name_hub_module_embedding/module_apply_default/Encoder_en/DNN/embedding_lookup_sparse/embedding_lookup/DynamicPartition:6"], "attr": {"validate_indices": {"b": true}, "Tparams": {"type": "DT_FLOAT"}, "Tindices": {"type": "DT_INT64"}}}, {"name": "dnn/input_from_feature_columns/input_layer/name_hub_module_embedding/module_apply_default/Encoder_en/DNN/embedding_lookup_sparse/embedding_lookup/Gather_7", "op": "Gather", "input": ["dnn/input_from_feature_columns/input_layer/name_hub_module_embedding/module/Embeddings_en/sharded_7", "dnn/input_from_feature_columns/input_layer/name_hub_module_embedding/module_apply_default/Encoder_en/DNN/embedding_lookup_sparse/embedding_lookup/DynamicPartition:7"], "attr": {"Tindices": {"type": "DT_INT64"}, "validate_indices": {"b": true}, "Tparams": {"type": "DT_FLOAT"}}}, {"name": "dnn/input_from_feature_columns/input_layer/name_hub_module_embedding/module_apply_default/Encoder_en/DNN/embedding_lookup_sparse/embedding_lookup/Gather_8", "op": "Gather", "input": ["dnn/input_from_feature_columns/input_layer/name_hub_module_embedding/module/Embeddings_en/sharded_8", "dnn/input_from_feature_columns/input_layer/name_hub_module_embedding/module_apply_default/Encoder_en/DNN/embedding_lookup_sparse/embedding_lookup/DynamicPartition:8"], "attr": {"Tindices": {"type": "DT_INT64"}, "validate_indices": {"b": true}, "Tparams": {"type": "DT_FLOAT"}}}, {"name": "dnn/input_from_feature_columns/input_layer/name_hub_module_embedding/module_apply_default/Encoder_en/DNN/embedding_lookup_sparse/embedding_lookup/Gather_9", "op": "Gather", "input": ["dnn/input_from_feature_columns/input_layer/name_hub_module_embedding/module/Embeddings_en/sharded_9", "dnn/input_from_feature_columns/input_layer/name_hub_module_embedding/module_apply_default/Encoder_en/DNN/embedding_lookup_sparse/embedding_lookup/DynamicPartition:9"], "attr": {"Tindices": {"type": "DT_INT64"}, "validate_indices": {"b": true}, "Tparams": {"type": "DT_FLOAT"}}}, {"name": "dnn/input_from_feature_columns/input_layer/name_hub_module_embedding/module_apply_default/Encoder_en/DNN/embedding_lookup_sparse/embedding_lookup/Gather_10", "op": "Gather", "input": ["dnn/input_from_feature_columns/input_layer/name_hub_module_embedding/module/Embeddings_en/sharded_10", "dnn/input_from_feature_columns/input_layer/name_hub_module_embedding/module_apply_default/Encoder_en/DNN/embedding_lookup_sparse/embedding_lookup/DynamicPartition:10"], "attr": {"Tindices": {"type": "DT_INT64"}, "validate_indices": {"b": true}, "Tparams": {"type": "DT_FLOAT"}}}, {"name": "dnn/input_from_feature_columns/input_layer/name_hub_module_embedding/module_apply_default/Encoder_en/DNN/embedding_lookup_sparse/embedding_lookup/Gather_11", "op": "Gather", "input": ["dnn/input_from_feature_columns/input_layer/name_hub_module_embedding/module/Embeddings_en/sharded_11", "dnn/input_from_feature_columns/input_layer/name_hub_module_embedding/module_apply_default/Encoder_en/DNN/embedding_lookup_sparse/embedding_lookup/DynamicPartition:11"], "attr": {"Tindices": {"type": "DT_INT64"}, "validate_indices": {"b": true}, "Tparams": {"type": "DT_FLOAT"}}}, {"name": "dnn/input_from_feature_columns/input_layer/name_hub_module_embedding/module_apply_default/Encoder_en/DNN/embedding_lookup_sparse/embedding_lookup/Gather_12", "op": "Gather", "input": ["dnn/input_from_feature_columns/input_layer/name_hub_module_embedding/module/Embeddings_en/sharded_12", "dnn/input_from_feature_columns/input_layer/name_hub_module_embedding/module_apply_default/Encoder_en/DNN/embedding_lookup_sparse/embedding_lookup/DynamicPartition:12"], "attr": {"Tindices": {"type": "DT_INT64"}, "validate_indices": {"b": true}, "Tparams": {"type": "DT_FLOAT"}}}, {"name": "dnn/input_from_feature_columns/input_layer/name_hub_module_embedding/module_apply_default/Encoder_en/DNN/embedding_lookup_sparse/embedding_lookup/Gather_13", "op": "Gather", "input": ["dnn/input_from_feature_columns/input_layer/name_hub_module_embedding/module/Embeddings_en/sharded_13", "dnn/input_from_feature_columns/input_layer/name_hub_module_embedding/module_apply_default/Encoder_en/DNN/embedding_lookup_sparse/embedding_lookup/DynamicPartition:13"], "attr": {"validate_indices": {"b": true}, "Tparams": {"type": "DT_FLOAT"}, "Tindices": {"type": "DT_INT64"}}}, {"name": "dnn/input_from_feature_columns/input_layer/name_hub_module_embedding/module_apply_default/Encoder_en/DNN/embedding_lookup_sparse/embedding_lookup/Gather_14", "op": "Gather", "input": ["dnn/input_from_feature_columns/input_layer/name_hub_module_embedding/module/Embeddings_en/sharded_14", "dnn/input_from_feature_columns/input_layer/name_hub_module_embedding/module_apply_default/Encoder_en/DNN/embedding_lookup_sparse/embedding_lookup/DynamicPartition:14"], "attr": {"Tindices": {"type": "DT_INT64"}, "validate_indices": {"b": true}, "Tparams": {"type": "DT_FLOAT"}}}, {"name": "dnn/input_from_feature_columns/input_layer/name_hub_module_embedding/module_apply_default/Encoder_en/DNN/embedding_lookup_sparse/embedding_lookup/Gather_15", "op": "Gather", "input": ["dnn/input_from_feature_columns/input_layer/name_hub_module_embedding/module/Embeddings_en/sharded_15", "dnn/input_from_feature_columns/input_layer/name_hub_module_embedding/module_apply_default/Encoder_en/DNN/embedding_lookup_sparse/embedding_lookup/DynamicPartition:15"], "attr": {"validate_indices": {"b": true}, "Tparams": {"type": "DT_FLOAT"}, "Tindices": {"type": "DT_INT64"}}}, {"name": "dnn/input_from_feature_columns/input_layer/name_hub_module_embedding/module_apply_default/Encoder_en/DNN/embedding_lookup_sparse/embedding_lookup/Gather_16", "op": "Gather", "input": ["dnn/input_from_feature_columns/input_layer/name_hub_module_embedding/module/Embeddings_en/sharded_16", "dnn/input_from_feature_columns/input_layer/name_hub_module_embedding/module_apply_default/Encoder_en/DNN/embedding_lookup_sparse/embedding_lookup/DynamicPartition:16"], "attr": {"Tindices": {"type": "DT_INT64"}, "validate_indices": {"b": true}, "Tparams": {"type": "DT_FLOAT"}}}, {"name": "dnn/input_from_feature_columns/input_layer/name_hub_module_embedding/module_apply_default/Encoder_en/DNN/embedding_lookup_sparse/embedding_lookup", "op": "ParallelDynamicStitch", "input": ["dnn/input_from_feature_columns/input_layer/name_hub_module_embedding/module_apply_default/Encoder_en/DNN/embedding_lookup_sparse/embedding_lookup/DynamicPartition_1", "dnn/input_from_feature_columns/input_layer/name_hub_module_embedding/module_apply_default/Encoder_en/DNN/embedding_lookup_sparse/embedding_lookup/DynamicPartition_1:1", "dnn/input_from_feature_columns/input_layer/name_hub_module_embedding/module_apply_default/Encoder_en/DNN/embedding_lookup_sparse/embedding_lookup/DynamicPartition_1:2", "dnn/input_from_feature_columns/input_layer/name_hub_module_embedding/module_apply_default/Encoder_en/DNN/embedding_lookup_sparse/embedding_lookup/DynamicPartition_1:3", "dnn/input_from_feature_columns/input_layer/name_hub_module_embedding/module_apply_default/Encoder_en/DNN/embedding_lookup_sparse/embedding_lookup/DynamicPartition_1:4", "dnn/input_from_feature_columns/input_layer/name_hub_module_embedding/module_apply_default/Encoder_en/DNN/embedding_lookup_sparse/embedding_lookup/DynamicPartition_1:5", "dnn/input_from_feature_columns/input_layer/name_hub_module_embedding/module_apply_default/Encoder_en/DNN/embedding_lookup_sparse/embedding_lookup/DynamicPartition_1:6", "dnn/input_from_feature_columns/input_layer/name_hub_module_embedding/module_apply_default/Encoder_en/DNN/embedding_lookup_sparse/embedding_lookup/DynamicPartition_1:7", "dnn/input_from_feature_columns/input_layer/name_hub_module_embedding/module_apply_default/Encoder_en/DNN/embedding_lookup_sparse/embedding_lookup/DynamicPartition_1:8", "dnn/input_from_feature_columns/input_layer/name_hub_module_embedding/module_apply_default/Encoder_en/DNN/embedding_lookup_sparse/embedding_lookup/DynamicPartition_1:9", "dnn/input_from_feature_columns/input_layer/name_hub_module_embedding/module_apply_default/Encoder_en/DNN/embedding_lookup_sparse/embedding_lookup/DynamicPartition_1:10", "dnn/input_from_feature_columns/input_layer/name_hub_module_embedding/module_apply_default/Encoder_en/DNN/embedding_lookup_sparse/embedding_lookup/DynamicPartition_1:11", "dnn/input_from_feature_columns/input_layer/name_hub_module_embedding/module_apply_default/Encoder_en/DNN/embedding_lookup_sparse/embedding_lookup/DynamicPartition_1:12", "dnn/input_from_feature_columns/input_layer/name_hub_module_embedding/module_apply_default/Encoder_en/DNN/embedding_lookup_sparse/embedding_lookup/DynamicPartition_1:13", "dnn/input_from_feature_columns/input_layer/name_hub_module_embedding/module_apply_default/Encoder_en/DNN/embedding_lookup_sparse/embedding_lookup/DynamicPartition_1:14", "dnn/input_from_feature_columns/input_layer/name_hub_module_embedding/module_apply_default/Encoder_en/DNN/embedding_lookup_sparse/embedding_lookup/DynamicPartition_1:15", "dnn/input_from_feature_columns/input_layer/name_hub_module_embedding/module_apply_default/Encoder_en/DNN/embedding_lookup_sparse/embedding_lookup/DynamicPartition_1:16", "dnn/input_from_feature_columns/input_layer/name_hub_module_embedding/module_apply_default/Encoder_en/DNN/embedding_lookup_sparse/embedding_lookup/Gather", "dnn/input_from_feature_columns/input_layer/name_hub_module_embedding/module_apply_default/Encoder_en/DNN/embedding_lookup_sparse/embedding_lookup/Gather_1", "dnn/input_from_feature_columns/input_layer/name_hub_module_embedding/module_apply_default/Encoder_en/DNN/embedding_lookup_sparse/embedding_lookup/Gather_2", "dnn/input_from_feature_columns/input_layer/name_hub_module_embedding/module_apply_default/Encoder_en/DNN/embedding_lookup_sparse/embedding_lookup/Gather_3", "dnn/input_from_feature_columns/input_layer/name_hub_module_embedding/module_apply_default/Encoder_en/DNN/embedding_lookup_sparse/embedding_lookup/Gather_4", "dnn/input_from_feature_columns/input_layer/name_hub_module_embedding/module_apply_default/Encoder_en/DNN/embedding_lookup_sparse/embedding_lookup/Gather_5", "dnn/input_from_feature_columns/input_layer/name_hub_module_embedding/module_apply_default/Encoder_en/DNN/embedding_lookup_sparse/embedding_lookup/Gather_6", "dnn/input_from_feature_columns/input_layer/name_hub_module_embedding/module_apply_default/Encoder_en/DNN/embedding_lookup_sparse/embedding_lookup/Gather_7", "dnn/input_from_feature_columns/input_layer/name_hub_module_embedding/module_apply_default/Encoder_en/DNN/embedding_lookup_sparse/embedding_lookup/Gather_8", "dnn/input_from_feature_columns/input_layer/name_hub_module_embedding/module_apply_default/Encoder_en/DNN/embedding_lookup_sparse/embedding_lookup/Gather_9", "dnn/input_from_feature_columns/input_layer/name_hub_module_embedding/module_apply_default/Encoder_en/DNN/embedding_lookup_sparse/embedding_lookup/Gather_10", "dnn/input_from_feature_columns/input_layer/name_hub_module_embedding/module_apply_default/Encoder_en/DNN/embedding_lookup_sparse/embedding_lookup/Gather_11", "dnn/input_from_feature_columns/input_layer/name_hub_module_embedding/module_apply_default/Encoder_en/DNN/embedding_lookup_sparse/embedding_lookup/Gather_12", "dnn/input_from_feature_columns/input_layer/name_hub_module_embedding/module_apply_default/Encoder_en/DNN/embedding_lookup_sparse/embedding_lookup/Gather_13", "dnn/input_from_feature_columns/input_layer/name_hub_module_embedding/module_apply_default/Encoder_en/DNN/embedding_lookup_sparse/embedding_lookup/Gather_14", "dnn/input_from_feature_columns/input_layer/name_hub_module_embedding/module_apply_default/Encoder_en/DNN/embedding_lookup_sparse/embedding_lookup/Gather_15", "dnn/input_from_feature_columns/input_layer/name_hub_module_embedding/module_apply_default/Encoder_en/DNN/embedding_lookup_sparse/embedding_lookup/Gather_16"], "attr": {"T": {"type": "DT_FLOAT"}, "N": {"i": "17"}}}, {"name": "dnn/input_from_feature_columns/input_layer/name_hub_module_embedding/module_apply_default/Encoder_en/DNN/embedding_lookup_sparse", "op": "SparseSegmentSqrtN", "input": ["dnn/input_from_feature_columns/input_layer/name_hub_module_embedding/module_apply_default/Encoder_en/DNN/embedding_lookup_sparse/embedding_lookup", "dnn/input_from_feature_columns/input_layer/name_hub_module_embedding/module_apply_default/Encoder_en/DNN/embedding_lookup_sparse/Unique:1", "dnn/input_from_feature_columns/input_layer/name_hub_module_embedding/module_apply_default/Encoder_en/DNN/embedding_lookup_sparse/Cast"], "attr": {"Tidx": {"type": "DT_INT32"}, "T": {"type": "DT_FLOAT"}}}, {"name": "dnn/input_from_feature_columns/input_layer/name_hub_module_embedding/module_apply_default/Encoder_en/DNN/ResidualHidden_0/MatMul", "op": "MatMul", "input": ["dnn/input_from_feature_columns/input_layer/name_hub_module_embedding/module_apply_default/Encoder_en/DNN/embedding_lookup_sparse", "dnn/input_from_feature_columns/input_layer/name_hub_module_embedding/module/Encoder_en/DNN/ResidualHidden_0/weights"], "attr": {"transpose_a": {"b": false}, "transpose_b": {"b": false}, "T": {"type": "DT_FLOAT"}}}, {"name": "dnn/input_from_feature_columns/input_layer/name_hub_module_embedding/module_apply_default/Encoder_en/DNN/ResidualHidden_0/Relu", "op": "Relu", "input": ["dnn/input_from_feature_columns/input_layer/name_hub_module_embedding/module_apply_default/Encoder_en/DNN/ResidualHidden_0/MatMul"], "attr": {"T": {"type": "DT_FLOAT"}}}, {"name": "dnn/input_from_feature_columns/input_layer/name_hub_module_embedding/module_apply_default/Encoder_en/DNN/ResidualHidden_1/MatMul", "op": "MatMul", "input": ["dnn/input_from_feature_columns/input_layer/name_hub_module_embedding/module_apply_default/Encoder_en/DNN/ResidualHidden_0/Relu", "dnn/input_from_feature_columns/input_layer/name_hub_module_embedding/module/Encoder_en/DNN/ResidualHidden_1/weights"], "attr": {"transpose_a": {"b": false}, "transpose_b": {"b": false}, "T": {"type": "DT_FLOAT"}}}, {"name": "dnn/input_from_feature_columns/input_layer/name_hub_module_embedding/module_apply_default/Encoder_en/DNN/ResidualHidden_1/add", "op": "Add", "input": ["dnn/input_from_feature_columns/input_layer/name_hub_module_embedding/module_apply_default/Encoder_en/DNN/ResidualHidden_1/MatMul", "dnn/input_from_feature_columns/input_layer/name_hub_module_embedding/module_apply_default/Encoder_en/DNN/embedding_lookup_sparse"], "attr": {"T": {"type": "DT_FLOAT"}}}, {"name": "dnn/input_from_feature_columns/input_layer/name_hub_module_embedding/module_apply_default/Encoder_en/DNN/ResidualHidden_1/Relu", "op": "Relu", "input": ["dnn/input_from_feature_columns/input_layer/name_hub_module_embedding/module_apply_default/Encoder_en/DNN/ResidualHidden_1/add"], "attr": {"T": {"type": "DT_FLOAT"}}}, {"name": "dnn/input_from_feature_columns/input_layer/name_hub_module_embedding/module_apply_default/Encoder_en/DNN/ResidualHidden_2/MatMul", "op": "MatMul", "input": ["dnn/input_from_feature_columns/input_layer/name_hub_module_embedding/module_apply_default/Encoder_en/DNN/ResidualHidden_1/Relu", "dnn/input_from_feature_columns/input_layer/name_hub_module_embedding/module/Encoder_en/DNN/ResidualHidden_2/weights"], "attr": {"T": {"type": "DT_FLOAT"}, "transpose_a": {"b": false}, "transpose_b": {"b": false}}}, {"name": "dnn/input_from_feature_columns/input_layer/name_hub_module_embedding/module_apply_default/Encoder_en/DNN/ResidualHidden_3/MatMul_1", "op": "MatMul", "input": ["dnn/input_from_feature_columns/input_layer/name_hub_module_embedding/module_apply_default/Encoder_en/DNN/ResidualHidden_1/Relu", "dnn/input_from_feature_columns/input_layer/name_hub_module_embedding/module/Encoder_en/DNN/ResidualHidden_3/projection"], "attr": {"transpose_a": {"b": false}, "transpose_b": {"b": false}, "T": {"type": "DT_FLOAT"}}}, {"name": "dnn/input_from_feature_columns/input_layer/name_hub_module_embedding/module_apply_default/Encoder_en/DNN/ResidualHidden_2/Relu", "op": "Relu", "input": ["dnn/input_from_feature_columns/input_layer/name_hub_module_embedding/module_apply_default/Encoder_en/DNN/ResidualHidden_2/MatMul"], "attr": {"T": {"type": "DT_FLOAT"}}}, {"name": "dnn/input_from_feature_columns/input_layer/name_hub_module_embedding/module_apply_default/Encoder_en/DNN/ResidualHidden_3/MatMul", "op": "MatMul", "input": ["dnn/input_from_feature_columns/input_layer/name_hub_module_embedding/module_apply_default/Encoder_en/DNN/ResidualHidden_2/Relu", "dnn/input_from_feature_columns/input_layer/name_hub_module_embedding/module/Encoder_en/DNN/ResidualHidden_3/weights"], "attr": {"transpose_b": {"b": false}, "T": {"type": "DT_FLOAT"}, "transpose_a": {"b": false}}}, {"name": "dnn/input_from_feature_columns/input_layer/name_hub_module_embedding/module_apply_default/Encoder_en/DNN/ResidualHidden_3/add", "op": "Add", "input": ["dnn/input_from_feature_columns/input_layer/name_hub_module_embedding/module_apply_default/Encoder_en/DNN/ResidualHidden_3/MatMul", "dnn/input_from_feature_columns/input_layer/name_hub_module_embedding/module_apply_default/Encoder_en/DNN/ResidualHidden_3/MatMul_1"], "attr": {"T": {"type": "DT_FLOAT"}}}, {"name": "dnn/input_from_feature_columns/input_layer/name_hub_module_embedding/module_apply_default/Encoder_en/DNN/ResidualHidden_3/Tanh", "op": "Tanh", "input": ["dnn/input_from_feature_columns/input_layer/name_hub_module_embedding/module_apply_default/Encoder_en/DNN/ResidualHidden_3/add"], "attr": {"T": {"type": "DT_FLOAT"}}}, {"name": "dnn/input_from_feature_columns/input_layer/name_hub_module_embedding/module_apply_default/Encoder_en/hidden_layers/l2_normalize/Square", "op": "Square", "input": ["dnn/input_from_feature_columns/input_layer/name_hub_module_embedding/module_apply_default/Encoder_en/DNN/ResidualHidden_3/Tanh"], "attr": {"T": {"type": "DT_FLOAT"}}}, {"name": "dnn/input_from_feature_columns/input_layer/name_hub_module_embedding/module_apply_default/Encoder_en/hidden_layers/l2_normalize/Sum", "op": "Sum", "input": ["dnn/input_from_feature_columns/input_layer/name_hub_module_embedding/module_apply_default/Encoder_en/hidden_layers/l2_normalize/Square", "dnn/head/Tile/multiples/1"], "attr": {"T": {"type": "DT_FLOAT"}, "Tidx": {"type": "DT_INT32"}, "keep_dims": {"b": true}}}, {"name": "dnn/input_from_feature_columns/input_layer/name_hub_module_embedding/module_apply_default/Encoder_en/hidden_layers/l2_normalize/Maximum", "op": "Maximum", "input": ["dnn/input_from_feature_columns/input_layer/name_hub_module_embedding/module_apply_default/Encoder_en/hidden_layers/l2_normalize/Sum", "dnn/input_from_feature_columns/input_layer/name_hub_module_embedding/module_apply_default/Encoder_en/hidden_layers/l2_normalize/Maximum/y"], "attr": {"T": {"type": "DT_FLOAT"}}}, {"name": "dnn/input_from_feature_columns/input_layer/name_hub_module_embedding/module_apply_default/Encoder_en/hidden_layers/l2_normalize/Rsqrt", "op": "Rsqrt", "input": ["dnn/input_from_feature_columns/input_layer/name_hub_module_embedding/module_apply_default/Encoder_en/hidden_layers/l2_normalize/Maximum"], "attr": {"T": {"type": "DT_FLOAT"}}}, {"name": "dnn/input_from_feature_columns/input_layer/name_hub_module_embedding/module_apply_default/Encoder_en/hidden_layers/l2_normalize", "op": "Mul", "input": ["dnn/input_from_feature_columns/input_layer/name_hub_module_embedding/module_apply_default/Encoder_en/DNN/ResidualHidden_3/Tanh", "dnn/input_from_feature_columns/input_layer/name_hub_module_embedding/module_apply_default/Encoder_en/hidden_layers/l2_normalize/Rsqrt"], "attr": {"T": {"type": "DT_FLOAT"}}}, {"name": "dnn/hiddenlayer_0/MatMul", "op": "MatMul", "input": ["dnn/input_from_feature_columns/input_layer/name_hub_module_embedding/module_apply_default/Encoder_en/hidden_layers/l2_normalize", "dnn/hiddenlayer_0/kernel/part_0"], "attr": {"transpose_a": {"b": false}, "transpose_b": {"b": false}, "T": {"type": "DT_FLOAT"}}}, {"name": "dnn/hiddenlayer_0/BiasAdd", "op": "BiasAdd", "input": ["dnn/hiddenlayer_0/MatMul", "dnn/hiddenlayer_0/bias/part_0"], "attr": {"T": {"type": "DT_FLOAT"}, "data_format": {"s": "TkhXQw=="}}}, {"name": "dnn/hiddenlayer_0/Relu", "op": "Relu", "input": ["dnn/hiddenlayer_0/BiasAdd"], "attr": {"T": {"type": "DT_FLOAT"}}}, {"name": "dnn/hiddenlayer_1/MatMul", "op": "MatMul", "input": ["dnn/hiddenlayer_0/Relu", "dnn/hiddenlayer_1/kernel/part_0"], "attr": {"T": {"type": "DT_FLOAT"}, "transpose_a": {"b": false}, "transpose_b": {"b": false}}}, {"name": "dnn/hiddenlayer_1/BiasAdd", "op": "BiasAdd", "input": ["dnn/hiddenlayer_1/MatMul", "dnn/hiddenlayer_1/bias/part_0"], "attr": {"data_format": {"s": "TkhXQw=="}, "T": {"type": "DT_FLOAT"}}}, {"name": "dnn/hiddenlayer_1/Relu", "op": "Relu", "input": ["dnn/hiddenlayer_1/BiasAdd"], "attr": {"T": {"type": "DT_FLOAT"}}}, {"name": "dnn/logits/MatMul", "op": "MatMul", "input": ["dnn/hiddenlayer_1/Relu", "dnn/logits/kernel/part_0"], "attr": {"transpose_a": {"b": false}, "transpose_b": {"b": false}, "T": {"type": "DT_FLOAT"}}}, {"name": "dnn/logits/BiasAdd", "op": "BiasAdd", "input": ["dnn/logits/MatMul", "dnn/logits/bias/part_0"], "attr": {"T": {"type": "DT_FLOAT"}, "data_format": {"s": "TkhXQw=="}}}, {"name": "dnn/head/predictions/probabilities", "op": "Sigmoid", "input": ["dnn/logits/BiasAdd"], "attr": {"T": {"type": "DT_FLOAT"}}}, {"name": "dnn/head/Shape", "op": "Shape", "input": ["dnn/head/predictions/probabilities"], "attr": {"T": {"type": "DT_FLOAT"}, "out_type": {"type": "DT_INT32"}}}, {"name": "dnn/head/strided_slice", "op": "StridedSlice", "input": ["dnn/head/Shape", "dnn/head/strided_slice/stack", "dnn/head/strided_slice/stack_1", "dnn/head/strided_slice/stack_1"], "attr": {"T": {"type": "DT_INT32"}, "Index": {"type": "DT_INT32"}, "shrink_axis_mask": {"i": "1"}, "ellipsis_mask": {"i": "0"}, "begin_mask": {"i": "0"}, "new_axis_mask": {"i": "0"}, "end_mask": {"i": "0"}}}, {"name": "dnn/head/Tile/multiples", "op": "Pack", "input": ["dnn/head/strided_slice", "dnn/head/Tile/multiples/1"], "attr": {"axis": {"i": "0"}, "N": {"i": "2"}, "T": {"type": "DT_INT32"}}}, {"name": "dnn/head/Tile", "op": "Tile", "input": ["dnn/head/ExpandDims", "dnn/head/Tile/multiples"], "attr": {"Tmultiples": {"type": "DT_INT32"}, "T": {"type": "DT_STRING"}}}], "library": {}, "versions": {}}, "weightsManifest": [{"paths": ["group1-shard1of245.bin", "group1-shard2of245.bin", "group1-shard3of245.bin", "group1-shard4of245.bin", "group1-shard5of245.bin", "group1-shard6of245.bin", "group1-shard7of245.bin", "group1-shard8of245.bin", "group1-shard9of245.bin", "group1-shard10of245.bin", "group1-shard11of245.bin", "group1-shard12of245.bin", "group1-shard13of245.bin", "group1-shard14of245.bin", "group1-shard15of245.bin", "group1-shard16of245.bin", "group1-shard17of245.bin", "group1-shard18of245.bin", "group1-shard19of245.bin", "group1-shard20of245.bin", "group1-shard21of245.bin", "group1-shard22of245.bin", "group1-shard23of245.bin", "group1-shard24of245.bin", "group1-shard25of245.bin", "group1-shard26of245.bin", "group1-shard27of245.bin", "group1-shard28of245.bin", "group1-shard29of245.bin", "group1-shard30of245.bin", "group1-shard31of245.bin", "group1-shard32of245.bin", "group1-shard33of245.bin", "group1-shard34of245.bin", "group1-shard35of245.bin", "group1-shard36of245.bin", "group1-shard37of245.bin", "group1-shard38of245.bin", "group1-shard39of245.bin", "group1-shard40of245.bin", "group1-shard41of245.bin", "group1-shard42of245.bin", "group1-shard43of245.bin", "group1-shard44of245.bin", "group1-shard45of245.bin", "group1-shard46of245.bin", "group1-shard47of245.bin", "group1-shard48of245.bin", "group1-shard49of245.bin", "group1-shard50of245.bin", "group1-shard51of245.bin", "group1-shard52of245.bin", "group1-shard53of245.bin", "group1-shard54of245.bin", "group1-shard55of245.bin", "group1-shard56of245.bin", "group1-shard57of245.bin", "group1-shard58of245.bin", "group1-shard59of245.bin", "group1-shard60of245.bin", "group1-shard61of245.bin", "group1-shard62of245.bin", "group1-shard63of245.bin", "group1-shard64of245.bin", "group1-shard65of245.bin", "group1-shard66of245.bin", "group1-shard67of245.bin", "group1-shard68of245.bin", "group1-shard69of245.bin", "group1-shard70of245.bin", "group1-shard71of245.bin", "group1-shard72of245.bin", "group1-shard73of245.bin", "group1-shard74of245.bin", "group1-shard75of245.bin", "group1-shard76of245.bin", "group1-shard77of245.bin", "group1-shard78of245.bin", "group1-shard79of245.bin", "group1-shard80of245.bin", "group1-shard81of245.bin", "group1-shard82of245.bin", "group1-shard83of245.bin", "group1-shard84of245.bin", "group1-shard85of245.bin", "group1-shard86of245.bin", "group1-shard87of245.bin", "group1-shard88of245.bin", "group1-shard89of245.bin", "group1-shard90of245.bin", "group1-shard91of245.bin", "group1-shard92of245.bin", "group1-shard93of245.bin", "group1-shard94of245.bin", "group1-shard95of245.bin", "group1-shard96of245.bin", "group1-shard97of245.bin", "group1-shard98of245.bin", "group1-shard99of245.bin", "group1-shard100of245.bin", "group1-shard101of245.bin", "group1-shard102of245.bin", "group1-shard103of245.bin", "group1-shard104of245.bin", "group1-shard105of245.bin", "group1-shard106of245.bin", "group1-shard107of245.bin", "group1-shard108of245.bin", "group1-shard109of245.bin", "group1-shard110of245.bin", "group1-shard111of245.bin", "group1-shard112of245.bin", "group1-shard113of245.bin", "group1-shard114of245.bin", "group1-shard115of245.bin", "group1-shard116of245.bin", "group1-shard117of245.bin", "group1-shard118of245.bin", "group1-shard119of245.bin", "group1-shard120of245.bin", "group1-shard121of245.bin", "group1-shard122of245.bin", "group1-shard123of245.bin", "group1-shard124of245.bin", "group1-shard125of245.bin", "group1-shard126of245.bin", "group1-shard127of245.bin", "group1-shard128of245.bin", "group1-shard129of245.bin", "group1-shard130of245.bin", "group1-shard131of245.bin", "group1-shard132of245.bin", "group1-shard133of245.bin", "group1-shard134of245.bin", "group1-shard135of245.bin", "group1-shard136of245.bin", "group1-shard137of245.bin", "group1-shard138of245.bin", "group1-shard139of245.bin", "group1-shard140of245.bin", "group1-shard141of245.bin", "group1-shard142of245.bin", "group1-shard143of245.bin", "group1-shard144of245.bin", "group1-shard145of245.bin", "group1-shard146of245.bin", "group1-shard147of245.bin", "group1-shard148of245.bin", "group1-shard149of245.bin", "group1-shard150of245.bin", "group1-shard151of245.bin", "group1-shard152of245.bin", "group1-shard153of245.bin", "group1-shard154of245.bin", "group1-shard155of245.bin", "group1-shard156of245.bin", "group1-shard157of245.bin", "group1-shard158of245.bin", "group1-shard159of245.bin", "group1-shard160of245.bin", "group1-shard161of245.bin", "group1-shard162of245.bin", "group1-shard163of245.bin", "group1-shard164of245.bin", "group1-shard165of245.bin", "group1-shard166of245.bin", "group1-shard167of245.bin", "group1-shard168of245.bin", "group1-shard169of245.bin", "group1-shard170of245.bin", "group1-shard171of245.bin", "group1-shard172of245.bin", "group1-shard173of245.bin", "group1-shard174of245.bin", "group1-shard175of245.bin", "group1-shard176of245.bin", "group1-shard177of245.bin", "group1-shard178of245.bin", "group1-shard179of245.bin", "group1-shard180of245.bin", "group1-shard181of245.bin", "group1-shard182of245.bin", "group1-shard183of245.bin", "group1-shard184of245.bin", "group1-shard185of245.bin", "group1-shard186of245.bin", "group1-shard187of245.bin", "group1-shard188of245.bin", "group1-shard189of245.bin", "group1-shard190of245.bin", "group1-shard191of245.bin", "group1-shard192of245.bin", "group1-shard193of245.bin", "group1-shard194of245.bin", "group1-shard195of245.bin", "group1-shard196of245.bin", "group1-shard197of245.bin", "group1-shard198of245.bin", "group1-shard199of245.bin", "group1-shard200of245.bin", "group1-shard201of245.bin", "group1-shard202of245.bin", "group1-shard203of245.bin", "group1-shard204of245.bin", "group1-shard205of245.bin", "group1-shard206of245.bin", "group1-shard207of245.bin", "group1-shard208of245.bin", "group1-shard209of245.bin", "group1-shard210of245.bin", "group1-shard211of245.bin", "group1-shard212of245.bin", "group1-shard213of245.bin", "group1-shard214of245.bin", "group1-shard215of245.bin", "group1-shard216of245.bin", "group1-shard217of245.bin", "group1-shard218of245.bin", "group1-shard219of245.bin", "group1-shard220of245.bin", "group1-shard221of245.bin", "group1-shard222of245.bin", "group1-shard223of245.bin", "group1-shard224of245.bin", "group1-shard225of245.bin", "group1-shard226of245.bin", "group1-shard227of245.bin", "group1-shard228of245.bin", "group1-shard229of245.bin", "group1-shard230of245.bin", "group1-shard231of245.bin", "group1-shard232of245.bin", "group1-shard233of245.bin", "group1-shard234of245.bin", "group1-shard235of245.bin", "group1-shard236of245.bin", "group1-shard237of245.bin", "group1-shard238of245.bin", "group1-shard239of245.bin", "group1-shard240of245.bin", "group1-shard241of245.bin", "group1-shard242of245.bin", "group1-shard243of245.bin", "group1-shard244of245.bin", "group1-shard245of245.bin"], "weights": [{"name": "dnn/head/AsString", "shape": [10], "dtype": "string"}, {"name": "dnn/input_from_feature_columns/input_layer/name_hub_module_embedding/module/Encoder_en/DNN/ResidualHidden_2/weights", "shape": [320, 512], "dtype": "float32"}, {"name": "dnn/input_from_feature_columns/input_layer/name_hub_module_embedding/module/Encoder_en/DNN/ResidualHidden_3/weights", "shape": [512, 512], "dtype": "float32"}, {"name": "dnn/input_from_feature_columns/input_layer/name_hub_module_embedding/module/Encoder_en/DNN/ResidualHidden_0/weights", "shape": [320, 320], "dtype": "float32"}, {"name": "dnn/input_from_feature_columns/input_layer/name_hub_module_embedding/module/Encoder_en/DNN/ResidualHidden_1/weights", "shape": [320, 320], "dtype": "float32"}, {"name": "dnn/input_from_feature_columns/input_layer/name_hub_module_embedding/module/Embeddings_en/sharded_0", "shape": [47060, 320], "dtype": "float32"}, {"name": "dnn/input_from_feature_columns/input_layer/name_hub_module_embedding/module/Embeddings_en/sharded_1", "shape": [47060, 320], "dtype": "float32"}, {"name": "dnn/input_from_feature_columns/input_layer/name_hub_module_embedding/module/Embeddings_en/sharded_2", "shape": [47060, 320], "dtype": "float32"}, {"name": "dnn/input_from_feature_columns/input_layer/name_hub_module_embedding/module/Embeddings_en/sharded_3", "shape": [47060, 320], "dtype": "float32"}, {"name": "dnn/input_from_feature_columns/input_layer/name_hub_module_embedding/module/Embeddings_en/sharded_4", "shape": [47060, 320], "dtype": "float32"}, {"name": "dnn/input_from_feature_columns/input_layer/name_hub_module_embedding/module/Embeddings_en/sharded_5", "shape": [47060, 320], "dtype": "float32"}, {"name": "dnn/input_from_feature_columns/input_layer/name_hub_module_embedding/module/Embeddings_en/sharded_6", "shape": [47060, 320], "dtype": "float32"}, {"name": "dnn/input_from_feature_columns/input_layer/name_hub_module_embedding/module/Embeddings_en/sharded_7", "shape": [47060, 320], "dtype": "float32"}, {"name": "dnn/input_from_feature_columns/input_layer/name_hub_module_embedding/module/Embeddings_en/sharded_8", "shape": [47060, 320], "dtype": "float32"}, {"name": "dnn/input_from_feature_columns/input_layer/name_hub_module_embedding/module/Embeddings_en/sharded_9", "shape": [47060, 320], "dtype": "float32"}, {"name": "dnn/input_from_feature_columns/input_layer/name_hub_module_embedding/module/Embeddings_en/sharded_10", "shape": [47060, 320], "dtype": "float32"}, {"name": "dnn/input_from_feature_columns/input_layer/name_hub_module_embedding/module/Embeddings_en/sharded_11", "shape": [47060, 320], "dtype": "float32"}, {"name": "dnn/input_from_feature_columns/input_layer/name_hub_module_embedding/module/Embeddings_en/sharded_12", "shape": [47060, 320], "dtype": "float32"}, {"name": "dnn/input_from_feature_columns/input_layer/name_hub_module_embedding/module/Embeddings_en/sharded_13", "shape": [47060, 320], "dtype": "float32"}, {"name": "dnn/input_from_feature_columns/input_layer/name_hub_module_embedding/module/Embeddings_en/sharded_14", "shape": [47060, 320], "dtype": "float32"}, {"name": "dnn/input_from_feature_columns/input_layer/name_hub_module_embedding/module/Embeddings_en/sharded_15", "shape": [47060, 320], "dtype": "float32"}, {"name": "dnn/input_from_feature_columns/input_layer/name_hub_module_embedding/module/Embeddings_en/sharded_16", "shape": [47060, 320], "dtype": "float32"}, {"name": "dnn/input_from_feature_columns/input_layer/name_hub_module_embedding/module_apply_default/Encoder_en/DNN/embedding_lookup_sparse/embedding_lookup/floordiv/y", "shape": [], "dtype": "int32"}, {"name": "dnn/input_from_feature_columns/input_layer/name_hub_module_embedding/module_apply_default/string_to_index/hash_table/Const", "shape": [], "dtype": "int32"}, {"name": "dnn/input_from_feature_columns/input_layer/name_hub_module_embedding/module_apply_default/compound_bigrams/boolean_mask/strided_slice/stack_1", "shape": [1], "dtype": "int32"}, {"name": "dnn/input_from_feature_columns/input_layer/name_hub_module_embedding/module_apply_default/compound_bigrams/strided_slice_2/stack", "shape": [3], "dtype": "int32"}, {"name": "dnn/input_from_feature_columns/input_layer/name_hub_module_embedding/module_apply_default/Const", "shape": [], "dtype": "int32"}, {"name": "dnn/head/ExpandDims/dim", "shape": [], "dtype": "int32"}, {"name": "dnn/input_from_feature_columns/input_layer/name_hub_module_embedding/module_apply_default/ones_like", "shape": [2], "dtype": "int32"}, {"name": "dnn/input_from_feature_columns/input_layer/name_hub_module_embedding/module_apply_default/StringJoin/inputs_0", "shape": [], "dtype": "string"}, {"name": "ParseExample/ParseExample/dense_keys_0", "shape": [], "dtype": "string"}, {"name": "ParseExample/ParseExample/names", "shape": [0], "dtype": "string"}, {"name": "dnn/input_from_feature_columns/input_layer/name_hub_module_embedding/module_apply_default/Encoder_en/DNN/embedding_lookup_sparse/embedding_lookup/Reshape/shape", "shape": [1], "dtype": "int32"}, {"name": "dnn/input_from_feature_columns/input_layer/name_hub_module_embedding/module_apply_default/normalize/RegexReplace/pattern", "shape": [], "dtype": "string"}, {"name": "dnn/input_from_feature_columns/input_layer/name_hub_module_embedding/module_apply_default/normalize/RegexReplace/rewrite", "shape": [], "dtype": "string"}, {"name": "dnn/input_from_feature_columns/input_layer/name_hub_module_embedding/module_apply_default/normalize/RegexReplace_1/pattern", "shape": [], "dtype": "string"}, {"name": "dnn/input_from_feature_columns/input_layer/name_hub_module_embedding/module_apply_default/normalize/RegexReplace_1/rewrite", "shape": [], "dtype": "string"}, {"name": "dnn/input_from_feature_columns/input_layer/name_hub_module_embedding/module_apply_default/normalize/RegexReplace_2/pattern", "shape": [], "dtype": "string"}, {"name": "dnn/input_from_feature_columns/input_layer/name_hub_module_embedding/module_apply_default/normalize/RegexReplace_2/rewrite", "shape": [], "dtype": "string"}, {"name": "dnn/input_from_feature_columns/input_layer/name_hub_module_embedding/module_apply_default/normalize/RegexReplace_3/pattern", "shape": [], "dtype": "string"}, {"name": "dnn/input_from_feature_columns/input_layer/name_hub_module_embedding/module_apply_default/normalize/RegexReplace_3/rewrite", "shape": [], "dtype": "string"}, {"name": "dnn/input_from_feature_columns/input_layer/name_hub_module_embedding/module_apply_default/normalize/RegexReplace_4/pattern", "shape": [], "dtype": "string"}, {"name": "dnn/input_from_feature_columns/input_layer/name_hub_module_embedding/module_apply_default/normalize/RegexReplace_4/rewrite", "shape": [], "dtype": "string"}, {"name": "dnn/input_from_feature_columns/input_layer/name_hub_module_embedding/module_apply_default/normalize/RegexReplace_5/pattern", "shape": [], "dtype": "string"}, {"name": "dnn/input_from_feature_columns/input_layer/name_hub_module_embedding/module_apply_default/normalize/RegexReplace_5/rewrite", "shape": [], "dtype": "string"}, {"name": "dnn/input_from_feature_columns/input_layer/name_hub_module_embedding/module_apply_default/normalize/RegexReplace_6/pattern", "shape": [], "dtype": "string"}, {"name": "dnn/input_from_feature_columns/input_layer/name_hub_module_embedding/module_apply_default/normalize/RegexReplace_6/rewrite", "shape": [], "dtype": "string"}, {"name": "dnn/input_from_feature_columns/input_layer/name_hub_module_embedding/module_apply_default/normalize/RegexReplace_7/pattern", "shape": [], "dtype": "string"}, {"name": "dnn/input_from_feature_columns/input_layer/name_hub_module_embedding/module_apply_default/normalize/RegexReplace_7/rewrite", "shape": [], "dtype": "string"}, {"name": "dnn/input_from_feature_columns/input_layer/name_hub_module_embedding/module_apply_default/normalize/RegexReplace_8/pattern", "shape": [], "dtype": "string"}, {"name": "dnn/input_from_feature_columns/input_layer/name_hub_module_embedding/module_apply_default/normalize/RegexReplace_8/rewrite", "shape": [], "dtype": "string"}, {"name": "dnn/input_from_feature_columns/input_layer/name_hub_module_embedding/module_apply_default/normalize/RegexReplace_9/pattern", "shape": [], "dtype": "string"}, {"name": "dnn/input_from_feature_columns/input_layer/name_hub_module_embedding/module_apply_default/normalize/RegexReplace_9/rewrite", "shape": [], "dtype": "string"}, {"name": "dnn/input_from_feature_columns/input_layer/name_hub_module_embedding/module_apply_default/normalize/RegexReplace_10/pattern", "shape": [], "dtype": "string"}, {"name": "dnn/input_from_feature_columns/input_layer/name_hub_module_embedding/module_apply_default/normalize/RegexReplace_10/rewrite", "shape": [], "dtype": "string"}, {"name": "dnn/input_from_feature_columns/input_layer/name_hub_module_embedding/module_apply_default/normalize/RegexReplace_11/pattern", "shape": [], "dtype": "string"}, {"name": "dnn/input_from_feature_columns/input_layer/name_hub_module_embedding/module_apply_default/normalize/RegexReplace_11/rewrite", "shape": [], "dtype": "string"}, {"name": "dnn/input_from_feature_columns/input_layer/name_hub_module_embedding/module_apply_default/normalize/RegexReplace_12/pattern", "shape": [], "dtype": "string"}, {"name": "dnn/input_from_feature_columns/input_layer/name_hub_module_embedding/module_apply_default/normalize/RegexReplace_12/rewrite", "shape": [], "dtype": "string"}, {"name": "dnn/input_from_feature_columns/input_layer/name_hub_module_embedding/module_apply_default/normalize/RegexReplace_13/pattern", "shape": [], "dtype": "string"}, {"name": "dnn/input_from_feature_columns/input_layer/name_hub_module_embedding/module_apply_default/normalize/RegexReplace_13/rewrite", "shape": [], "dtype": "string"}, {"name": "dnn/input_from_feature_columns/input_layer/name_hub_module_embedding/module_apply_default/normalize/RegexReplace_14/pattern", "shape": [], "dtype": "string"}, {"name": "dnn/input_from_feature_columns/input_layer/name_hub_module_embedding/module_apply_default/normalize/RegexReplace_14/rewrite", "shape": [], "dtype": "string"}, {"name": "dnn/input_from_feature_columns/input_layer/name_hub_module_embedding/module_apply_default/normalize/RegexReplace_15/pattern", "shape": [], "dtype": "string"}, {"name": "dnn/input_from_feature_columns/input_layer/name_hub_module_embedding/module_apply_default/normalize/RegexReplace_15/rewrite", "shape": [], "dtype": "string"}, {"name": "dnn/input_from_feature_columns/input_layer/name_hub_module_embedding/module_apply_default/normalize/RegexReplace_16/pattern", "shape": [], "dtype": "string"}, {"name": "dnn/input_from_feature_columns/input_layer/name_hub_module_embedding/module_apply_default/normalize/RegexReplace_16/rewrite", "shape": [], "dtype": "string"}, {"name": "dnn/input_from_feature_columns/input_layer/name_hub_module_embedding/module_apply_default/normalize/RegexReplace_17/pattern", "shape": [], "dtype": "string"}, {"name": "dnn/input_from_feature_columns/input_layer/name_hub_module_embedding/module_apply_default/normalize/RegexReplace_17/rewrite", "shape": [], "dtype": "string"}, {"name": "dnn/input_from_feature_columns/input_layer/name_hub_module_embedding/module_apply_default/normalize/RegexReplace_18/pattern", "shape": [], "dtype": "string"}, {"name": "dnn/input_from_feature_columns/input_layer/name_hub_module_embedding/module_apply_default/normalize/RegexReplace_18/rewrite", "shape": [], "dtype": "string"}, {"name": "dnn/input_from_feature_columns/input_layer/name_hub_module_embedding/module_apply_default/normalize/RegexReplace_19/pattern", "shape": [], "dtype": "string"}, {"name": "dnn/input_from_feature_columns/input_layer/name_hub_module_embedding/module_apply_default/normalize/RegexReplace_19/rewrite", "shape": [], "dtype": "string"}, {"name": "dnn/input_from_feature_columns/input_layer/name_hub_module_embedding/module_apply_default/normalize/RegexReplace_20/pattern", "shape": [], "dtype": "string"}, {"name": "dnn/input_from_feature_columns/input_layer/name_hub_module_embedding/module_apply_default/normalize/RegexReplace_20/rewrite", "shape": [], "dtype": "string"}, {"name": "dnn/input_from_feature_columns/input_layer/name_hub_module_embedding/module_apply_default/normalize/RegexReplace_21/pattern", "shape": [], "dtype": "string"}, {"name": "dnn/input_from_feature_columns/input_layer/name_hub_module_embedding/module_apply_default/normalize/RegexReplace_21/rewrite", "shape": [], "dtype": "string"}, {"name": "dnn/input_from_feature_columns/input_layer/name_hub_module_embedding/module_apply_default/normalize/RegexReplace_22/pattern", "shape": [], "dtype": "string"}, {"name": "dnn/input_from_feature_columns/input_layer/name_hub_module_embedding/module_apply_default/normalize/RegexReplace_22/rewrite", "shape": [], "dtype": "string"}, {"name": "dnn/input_from_feature_columns/input_layer/name_hub_module_embedding/module_apply_default/normalize/RegexReplace_23/pattern", "shape": [], "dtype": "string"}, {"name": "dnn/input_from_feature_columns/input_layer/name_hub_module_embedding/module_apply_default/normalize/RegexReplace_23/rewrite", "shape": [], "dtype": "string"}, {"name": "dnn/input_from_feature_columns/input_layer/name_hub_module_embedding/module_apply_default/normalize/RegexReplace_24/pattern", "shape": [], "dtype": "string"}, {"name": "dnn/input_from_feature_columns/input_layer/name_hub_module_embedding/module_apply_default/normalize/RegexReplace_24/rewrite", "shape": [], "dtype": "string"}, {"name": "dnn/input_from_feature_columns/input_layer/name_hub_module_embedding/module_apply_default/normalize/RegexReplace_25/pattern", "shape": [], "dtype": "string"}, {"name": "dnn/input_from_feature_columns/input_layer/name_hub_module_embedding/module_apply_default/normalize/RegexReplace_25/rewrite", "shape": [], "dtype": "string"}, {"name": "dnn/input_from_feature_columns/input_layer/name_hub_module_embedding/module_apply_default/normalize/RegexReplace_26/pattern", "shape": [], "dtype": "string"}, {"name": "dnn/input_from_feature_columns/input_layer/name_hub_module_embedding/module_apply_default/StringJoin/inputs_2", "shape": [], "dtype": "string"}, {"name": "dnn/input_from_feature_columns/input_layer/name_hub_module_embedding/module_apply_default/RegexReplace/pattern", "shape": [], "dtype": "string"}, {"name": "dnn/input_from_feature_columns/input_layer/name_hub_module_embedding/module_apply_default/RegexReplace_1/rewrite", "shape": [], "dtype": "string"}, {"name": "dnn/input_from_feature_columns/input_layer/name_hub_module_embedding/module_apply_default/tokenize/Const", "shape": [], "dtype": "string"}, {"name": "dnn/head/strided_slice/stack", "shape": [1], "dtype": "int32"}, {"name": "dnn/head/strided_slice/stack_1", "shape": [1], "dtype": "int32"}, {"name": "dnn/input_from_feature_columns/input_layer/name_hub_module_embedding/module_apply_default/compound_bigrams/ExpandDims/dim", "shape": [], "dtype": "int32"}, {"name": "dnn/input_from_feature_columns/input_layer/name_hub_module_embedding/module_apply_default/compound_bigrams/concat_1/axis", "shape": [], "dtype": "int32"}, {"name": "dnn/input_from_feature_columns/input_layer/name_hub_module_embedding/module_apply_default/compound_bigrams/RegexReplace/pattern", "shape": [], "dtype": "string"}, {"name": "dnn/input_from_feature_columns/input_layer/name_hub_module_embedding/module_apply_default/compound_bigrams/RegexReplace_1/pattern", "shape": [], "dtype": "string"}, {"name": "dnn/input_from_feature_columns/input_layer/name_hub_module_embedding/module_apply_default/compound_bigrams/RegexReplace_2/pattern", "shape": [], "dtype": "string"}, {"name": "dnn/input_from_feature_columns/input_layer/name_hub_module_embedding/module_apply_default/Equal/y", "shape": [], "dtype": "string"}, {"name": "dnn/input_from_feature_columns/input_layer/name_hub_module_embedding/module_apply_default/compound_bigrams/strided_slice_2/stack_1", "shape": [3], "dtype": "int32"}, {"name": "dnn/input_from_feature_columns/input_layer/name_hub_module_embedding/module_apply_default/compound_bigrams/strided_slice_3/stack_1", "shape": [3], "dtype": "int32"}, {"name": "dnn/input_from_feature_columns/input_layer/name_hub_module_embedding/module_apply_default/compound_bigrams/strided_slice_2/stack_2", "shape": [3], "dtype": "int32"}, {"name": "dnn/input_from_feature_columns/input_layer/name_hub_module_embedding/module_apply_default/compound_bigrams/strided_slice_1/stack_1", "shape": [2], "dtype": "int32"}, {"name": "dnn/input_from_feature_columns/input_layer/name_hub_module_embedding/module_apply_default/compound_bigrams/strided_slice_1/stack", "shape": [2], "dtype": "int32"}, {"name": "dnn/input_from_feature_columns/input_layer/name_hub_module_embedding/module_apply_default/compound_bigrams/strided_slice_1/stack_2", "shape": [2], "dtype": "int32"}, {"name": "dnn/input_from_feature_columns/input_layer/name_hub_module_embedding/module/Encoder_en/DNN/ResidualHidden_3/projection", "shape": [320, 512], "dtype": "float32"}, {"name": "dnn/head/Tile/multiples/1", "shape": [], "dtype": "int32"}, {"name": "dnn/input_from_feature_columns/input_layer/name_hub_module_embedding/module_apply_default/Encoder_en/hidden_layers/l2_normalize/Maximum/y", "shape": [], "dtype": "float32"}, {"name": "dnn/hiddenlayer_0/kernel/part_0", "shape": [512, 64], "dtype": "float32"}, {"name": "dnn/hiddenlayer_0/bias/part_0", "shape": [64], "dtype": "float32"}, {"name": "dnn/hiddenlayer_1/kernel/part_0", "shape": [64, 10], "dtype": "float32"}, {"name": "dnn/hiddenlayer_1/bias/part_0", "shape": [10], "dtype": "float32"}, {"name": "dnn/logits/kernel/part_0", "shape": [10, 10], "dtype": "float32"}, {"name": "dnn/logits/bias/part_0", "shape": [10], "dtype": "float32"}, {"name": "ConstantFolding/dnn/input_from_feature_columns/input_layer/name_hub_module_embedding/module_apply_default/compound_bigrams/boolean_mask/concat/values_1_const_axis", "shape": [], "dtype": "int32"}]}]}